model/landmark_classifier/landmark-matome-v1.2.tflite (tflite, 4632 bytes, 6 tensors)

sequential/dense_2/MatMul f4 [6, 10]
000000 f7 21 2c 3f ab 35 3c 3e 1a c9 d5 be a2 41 16 bf
       0.67239326 0.18379848 -0.4175499 -0.586939
000010 58 77 64 bf 17 6d 91 3f 28 f5 ae 3e 87 91 6d bf
       -0.89244604 1.1361417 0.34171414 -0.9280018
000020 74 42 8a 3e a5 42 7e bf 8a 62 b1 3e 34 6d 96 bf
       0.27003825 -0.9932044 0.34645492 -1.1752076
000030 3a 98 51 3f d2 72 32 bf c5 af ed 3e bb f2 2c 3f
       0.81872904 -0.6970645 0.46423164 0.6755788
000040 36 68 a0 be 84 28 2e bf ca 0b 6e bf 9f 96 e9 3e
       -0.31329507 -0.6803057 -0.9298674 0.45622727
000050 33 9c 28 3f b1 17 05 3e bc 62 14 3f 83 41 81 3e
       0.6586334 0.12997319 0.57963157 0.25245294
000060 ec 00 e4 3e 93 8b 18 c0 5e 5c 2b 3f 0a a4 5e 3f
       0.44531953 -2.383519 0.66937816 0.86969054
000070 86 ef 52 bf ea 40 28 bf bf af 88 bf 3f b6 e5 be
       -0.82396734 -0.6572405 -1.0678633 -0.44865605
000080 08 dc 1b bf 8e 17 cc 3d 75 83 92 3f 3e f3 d4 be
       -0.60882616 0.0996543 1.1446368 -0.4159183
000090 a9 22 77 3f dd 70 86 3f b3 20 69 3f 22 dc c2 bf
       0.9653726 1.0503193 0.9106552 -1.5223429
0000a0 a7 d2 de 3e 9a 0a da bd a8 8c bc be 8e 01 89 3f
       0.4352009 -0.10646553 -0.36826062 1.07036
0000b0 12 b6 25 bf 9d f4 ce be f7 c5 87 bf fa c3 6b be
       -0.6473094 -0.40421 -1.0607289 -0.23023978
0000c0 fb 43 eb 3e 46 0c 4b 3f 9e 54 18 bf 1d 4a f9 3e
       0.45950302 0.793156 -0.59504116 0.48689356
0000d0 0f ba 91 3f 81 c5 7d 3e a1 10 01 bf 26 29 14 be
       1.1384906 0.24782373 -0.50416 -0.14468822
0000e0 a9 26 59 be 39 fe 55 bf f5 20 63 3f f2 92 b7 bd
       -0.21206154 -0.8359104 0.88722163 -0.089635745

sequential/dense_1/MatMul f4 [10, 20]
000000 a3 91 69 3e 91 8a 76 3f ea c4 da 3d cf 0e b8 3e
       0.22809462 0.96305186 0.106820896 0.35948798
000010 1e b0 18 3f e7 3c 9b 3e 08 df 70 3f ff af 6c 3e
       0.59643734 0.30319902 0.9409032 0.23114012
000020 cc 8f 81 3f a2 43 e2 3d 1a df e1 3d b4 32 aa be
       1.0122008 0.11048056 0.11028881 -0.33241808
000030 a4 1c 83 3e e4 7f d2 be b8 e8 c2 3e ae d7 6d 3e
       0.2560779 -0.41113198 0.38068175 0.23226807
000040 66 1d b2 3e a6 96 15 be 56 f5 15 3f ed ef e7 be
       0.34788054 -0.14608249 0.5857748 -0.45300236
000050 d9 ea eb 3e b7 e0 2f bd 44 1a 51 bd 5b 40 2b 3e
       0.46077612 -0.042938914 -0.05105044 0.16723768
000060 9c 60 f6 3e fa 1e 34 3f 98 93 ec be 17 3b 7f 3f
       0.48120582 0.70359766 -0.46206355 0.9969954
000070 c6 21 5e 3e b9 ab 29 3f 84 ba ec bd c9 f1 be bc
       0.21692571 0.6627765 -0.115590125 -0.023308652
000080 88 90 6e 3e 5f 41 36 3e a3 a4 db 3e 2c ad 4b 3e
       0.23297322 0.17798375 0.42899045 0.19890279
000090 b3 21 6c 3e 15 5d 61 bf d0 68 c7 3e 0e 19 ac bd
       0.2305973 -0.88032657 0.38947153 -0.08403216
0000a0 de d8 de 3e 20 d1 7c 3b c5 84 d0 3e 67 c3 70 bd
       0.43524832 0.0038576797 0.40726295 -0.0587801
0000b0 72 40 3d 3e 24 12 4f 3f 52 3c de 3e ee f0 1f be
       0.18481615 0.80887055 0.43405396 -0.15619251
0000c0 b7 98 87 3e 81 a5 9b 3e c3 ed 5c 3f 55 4d 35 be
       0.264837 0.30399707 0.86300296 -0.17705281
0000d0 d2 bd 0d 3f c3 32 11 3f 5e 3a 33 3f a9 72 a2 3e
       0.5536777 0.5671808 0.70010936 0.31728104
0000e0 e9 0a 2f 3f 63 24 a9 bc 64 03 1d be 1e 22 83 3f
       0.6837602 -0.020647233 -0.15333325 1.0244787
0000f0 e5 a3 3f 3f 88 8a 71 3f 58 9c f5 bd 0e fd 77 bf
       0.7485946 0.94352007 -0.11992711 -0.96870506
000100 e8 2c 15 bf 34 b5 21 3f b7 4e 0f 3f 74 ad 91 3e
       -0.58271646 0.6316712 0.55979484 0.28452647
000110 ab 04 9a 3d c4 f0 54 3f fc 6e 9f 3d 72 db 98 3e
       0.075204216 0.8317988 0.077848405 0.29854923
000120 95 fc 8a be 87 1d 3f bf 22 32 08 3f 43 86 a0 3d
       -0.2714583 -0.7465443 0.53201497 0.078381084
000130 a2 92 ca 3e 62 eb 6a 3f 5a 56 2b 3f aa 3e 3f be
       0.39564997 0.91765416 0.6692864 -0.18676248
000140 0a 89 dc be f6 c9 7d be ea a0 90 bf 75 44 8b 3a
       -0.43073303 -0.24784073 -1.1299107 0.001062526
000150 63 51 95 bd b6 2f e5 be 83 f7 3e 3d 24 fd 16 bf
       -0.07290914 -0.44762963 0.046622764 -0.5898001
000160 91 30 30 3f 4b 57 cc 3e e4 5f 8e bf 3f 7c e8 bc
       0.68824106 0.3991035 -1.1123013 -0.028379558
000170 72 e8 33 3e 27 15 1f 3f 5e 7c 17 3d 2e fb 16 3f
       0.1756914 0.6214165 0.03698384 0.5897702
000180 10 12 e6 bd c7 31 23 3f 2f 47 4d bf aa b5 9c 3e
       -0.11233914 0.6374783 -0.8018674 0.3060735
000190 25 60 db 3e c3 f8 15 be 78 b3 38 3f 36 0e 4a 3f
       0.4284679 -0.14645676 0.7214885 0.78927934
0001a0 b5 3e 83 3f e6 7c 40 be 7f ea 56 be 88 0b d2 3e
       1.0253512 -0.18797645 -0.2098789 0.41024423
0001b0 2a 55 9d be e1 63 51 bd 01 d7 ed 3e 0d 08 5d 3f
       -0.30729038 -0.051120643 0.46453097 0.8634041
0001c0 4a 7a 7d 3f 81 af 2d 3f 84 78 0d be 0b 7c d9 bd
       0.99014723 0.6784592 -0.13815504 -0.106193624
0001d0 c6 9a 14 be 84 eb e1 3e 42 9e 80 3e 17 78 dd 3e
       -0.14512166 0.44124997 0.2512074 0.43255684
0001e0 97 e4 12 be 4f 6a 91 be 82 ea 9c bd 56 4a fc be
       -0.14345013 -0.2840142 -0.07661916 -0.49275464
0001f0 97 d1 83 bf 49 c0 b8 bd 54 6a 55 be 12 91 a1 bb
       -1.0298337 -0.090210505 -0.20841342 -0.004930624
000200 89 ed c0 be 82 08 80 3e 5a 34 2f bf dc 7a 50 be
       -0.37681225 0.2500649 -0.6843926 -0.20359367
000210 e3 41 1e 3f 61 52 76 bf d6 54 9c bd be 38 3d 3f
       0.61819285 -0.9621945 -0.07633369 0.73914707
000220 9d af 9b bd 19 48 11 bd b8 13 12 bf c3 7d 7a be
       -0.07601855 -0.03546915 -0.5706134 -0.24462037
000230 68 bf 23 bf 09 2d 0a 3f 4c 3f 59 bf 57 d6 d0 be
       -0.6396394 0.5397497 -0.8486221 -0.40788528
000240 5d 6d 8c bf 62 73 5c 3d 4b fd 18 be 34 0d 46 bf
       -1.0970875 0.053820975 -0.14940374 -0.77363896
000250 50 2b ff 3e d9 df 68 3e e4 aa 96 be 7c 03 89 be
       0.49837732 0.22741641 -0.29427254 -0.2676047
000260 e4 3b b1 be e6 34 bd 3e b4 cc c9 be 93 0d 41 3f
       -0.34616005 0.3695442 -0.3941399 0.7541134
000270 32 85 ec 3e 3b f3 0b 3e fb 3e 21 bf 77 d6 8b bf
       0.4619537 0.13667004 -0.62986726 -1.0924824
000280 35 37 23 3e 69 cb 83 be f0 e7 07 3d 33 16 e0 be
       0.15939029 -0.25741127 0.033180177 -0.43766937
000290 bc ce 0f bf 81 1e 50 be 70 60 b8 3e f1 42 4f 3f
       -0.56174827 -0.20324136 0.36011076 0.8096152
0002a0 2d 12 be be db ea ba 3e ae 6e db bd f9 8f e5 bb
       -0.37123242 0.36507306 -0.1071447 -0.0070056883
0002b0 1a dd 10 3d 5a f1 37 3f 58 a5 6f be 17 ce a4 3c
       0.03536711 0.7185265 -0.23402917 0.020117803
0002c0 c5 09 de be 81 d6 8a 3e 1f 16 a6 3e b9 e1 c3 3b
       -0.4336683 0.27116778 0.32438752 0.005977836
0002d0 49 71 77 3e ca cd 09 be 52 13 a9 3e 42 78 a7 be
       0.24164309 -0.13457409 0.33022553 -0.32708937
0002e0 c5 49 90 bd 8e 7a 94 3d e8 3f 32 3f c7 7f b1 3e
       -0.070453204 0.07249938 0.69628763 0.346678
0002f0 f4 21 00 bf ba b6 06 3e 77 af 63 3f b0 d4 5f 3e
       -0.5005181 0.13155642 0.88939613 0.21858478
000300 8a af ba 3b 58 cd ea bd 96 a4 28 3f da a2 b9 bd
       0.0056971954 -0.114649475 0.6587614 -0.090642646
000310 0a 7e 80 3f 03 9e 25 3f 34 4e 34 3f 61 00 e9 3e
       1.0038464 0.6469423 0.7043183 0.45508102

sequential/dense/BiasAdd/ReadVariableOp f4 [20]
000000 5f d7 f4 be 91 5f a6 3e 2b 36 a2 bd 20 13 89 3e
       -0.47820565 0.32494786 -0.07920488 0.26772404
000010 3a 96 a5 3e ac 83 e8 be 66 99 16 3d 8e 6b 35 bf
       0.32341176 -0.45412958 0.036767386 -0.7086724
000020 c1 4f 7c be 9a 9c 91 bf 55 17 72 3e a8 40 c5 3e
       -0.24639799 -1.1375916 0.23641713 0.3852589
000030 16 d7 9c 3e e5 bd 0c bf 46 9a 0a be 36 e8 dd be
       0.30632848 -0.54977256 -0.13535413 -0.43341225
000040 76 55 21 3d 4c 85 ce 3e 52 6c 17 be e3 8c 88 3d
       0.039388143 0.40336072 -0.14787415 0.06667497

sequential/dense_2/BiasAdd/ReadVariableOp f4 [6]
000000 6e f6 0f bd 2e 02 f0 3c a6 91 44 be ca b9 89 3e
       -0.035147123 0.029297914 -0.19196185 0.26899558
000010 18 64 b2 bc bc c1 e5 bd
       -0.021776244 -0.112185925

sequential/dense_1/BiasAdd/ReadVariableOp f4 [10]
000000 2a 51 34 3e 1e 6b cf 3d 53 1f 55 3e f9 72 dd 3e
       0.17609087 0.10127853 0.2081273 0.4325178
000010 ad 05 6b 3f 3a 3c 1d 3f 28 3a bd 3e f5 16 43 3f
       0.91805536 0.61420023 0.36958432 0.76206905
000020 cc d4 d8 3e f8 e3 75 3d
       0.4234985 0.06003186

sequential/dense/MatMul i1 [20, 63] scale=0.011226106 zero_point=0
000000 f7 13 fa f2 9a 0b f2 c3 12 fb d9 0f 0c e0 02 fd
       -0.101034954 0.21329603 -0.06735664 -0.1571655 -1.1450628 0.123487175 -0.1571655 -0.6847925 0.20206991 -0.056130532 -0.43781814 0.1683916 0.13471328 -0.3592354 0.022452213 -0.03367832
000010 02 ec 06 0c fc 0a 12 f5 03 17 fd 06 0f f1 ff 08
       0.022452213 -0.22452213 0.06735664 0.13471328 -0.044904426 0.112261064 0.20206991 -0.123487175 0.03367832 0.25820044 -0.03367832 0.06735664 0.1683916 -0.1683916 -0.011226106 0.08980885
000020 f0 05 07 f7 07 0a 05 0d 1b d8 f5 06 fb f5 ee f6
       -0.1796177 0.056130532 0.07858275 -0.101034954 0.07858275 0.112261064 0.056130532 0.14593938 0.30310488 -0.44904426 -0.123487175 0.06735664 -0.056130532 -0.123487175 -0.20206991 -0.112261064
000030 09 fc f8 07 3c de f4 2c ed ee 08 ec fe 1a f8 13
       0.101034954 -0.044904426 -0.08980885 0.07858275 0.6735664 -0.3816876 -0.13471328 0.4939487 -0.21329603 -0.20206991 0.08980885 -0.22452213 -0.022452213 0.29187876 -0.08980885 0.21329603
000040 fe 0e 0a e5 d5 01 01 ef fa e8 f1 f2 f2 fd 04 e2
       -0.022452213 0.1571655 0.112261064 -0.30310488 -0.48272258 0.011226106 0.011226106 -0.1908438 -0.06735664 -0.26942655 -0.1683916 -0.1571655 -0.1571655 -0.03367832 0.044904426 -0.3367832
000050 e7 03 02 f9 08 0f 01 08 0b 03 07 e5 e4 fd 1a 03
       -0.28065267 0.03367832 0.022452213 -0.07858275 0.08980885 0.1683916 0.011226106 0.08980885 0.123487175 0.03367832 0.07858275 -0.30310488 -0.314331 -0.03367832 0.29187876 0.03367832
000060 03 27 0e 03 28 13 04 e0 f3 03 1f 07 f7 30 1f f7
       0.03367832 0.43781814 0.1571655 0.03367832 0.44904426 0.21329603 0.044904426 -0.3592354 -0.14593938 0.03367832 0.3480093 0.07858275 -0.101034954 0.5388531 0.3480093 -0.101034954
000070 06 2a ff d3 f2 fb 02 06 fe 0d 0f f5 db 1b f8 eb
       0.06735664 0.47149646 -0.011226106 -0.5051748 -0.1571655 -0.056130532 0.022452213 0.06735664 -0.022452213 0.14593938 0.1683916 -0.123487175 -0.41536593 0.30310488 -0.08980885 -0.23574823
000080 0e 01 fc 2a 02 08 19 1f 01 13 55 fb 0e de 08 00
       0.1571655 0.011226106 -0.044904426 0.47149646 0.022452213 0.08980885 0.28065267 0.3480093 0.011226106 0.21329603 0.95421904 -0.056130532 0.1571655 -0.3816876 0.08980885 0.0
000090 00 05 05 06 07 07 08 08 07 d9 0a fb f2 04 08 fe
       0.0 0.056130532 0.056130532 0.06735664 0.07858275 0.07858275 0.08980885 0.08980885 0.07858275 -0.43781814 0.112261064 -0.056130532 -0.1571655 0.044904426 0.08980885 -0.022452213
0000a0 03 04 06 03 fe f1 0b 07 04 00 fd cd ec fd ab ee
       0.03367832 0.044904426 0.06735664 0.03367832 -0.022452213 -0.1683916 0.123487175 0.07858275 0.044904426 0.0 -0.03367832 -0.5725314 -0.22452213 -0.03367832 -0.95421904 -0.20206991
0000b0 e4 0d 11 f4 05 ff fd e5 f3 f4 c9 ea ef f9 09 11
       -0.314331 0.14593938 0.1908438 -0.13471328 0.056130532 -0.011226106 -0.03367832 -0.30310488 -0.14593938 -0.13471328 -0.6174359 -0.24697435 -0.1908438 -0.07858275 0.101034954 0.1908438
0000c0 16 f3 04 01 e2 17 0e e8 15 06 e5 1d fb 0b 18 09
       0.24697435 -0.14593938 0.044904426 0.011226106 -0.3367832 0.25820044 0.1571655 -0.26942655 0.23574823 0.06735664 -0.30310488 0.32555708 -0.056130532 0.123487175 0.26942655 0.101034954
0000d0 08 1d f9 12 15 ee 11 13 ff 1b 19 fb 08 18 fa 2a
       0.08980885 0.32555708 -0.07858275 0.20206991 0.23574823 -0.20206991 0.1908438 0.21329603 -0.011226106 0.30310488 0.28065267 -0.056130532 0.08980885 0.26942655 -0.06735664 0.47149646
0000e0 03 db 30 fc 00 20 1f 02 13 1b 05 1f 12 f0 2f f3
       0.03367832 -0.41536593 0.5388531 -0.044904426 0.0 0.3592354 0.3480093 0.022452213 0.21329603 0.30310488 0.056130532 0.3480093 0.20206991 -0.1796177 0.527627 -0.14593938
0000f0 05 2f 1e 08 27 0c f5 25 0a ff 24 ef ec f2 0d 19
       0.056130532 0.527627 0.3367832 0.08980885 0.43781814 0.13471328 -0.123487175 0.41536593 0.112261064 -0.011226106 0.40413982 -0.1908438 -0.22452213 -0.1571655 0.14593938 0.28065267
