model/landmark_classifier/landmark-matome-v1.1.tflite (tflite, 4576 bytes, 6 tensors)

sequential_1/dense_5/MatMul f4 [4, 10]
00000000: 3dae 95b9 f5db 713e be28 18bf 64fa 30bf
00000010: 1362 963f 2012 1bbf e3dd 5f3f 5578 47bf
00000020: 8cd6 6ebf ca6c d9bd bea0 4e3f 3af6 89be
00000030: 1299 3b3f 8f0a 353f d95e 703d 916b 6dbf
00000040: b49e 1c3f 4ab4 83be ce7d 7bbf e28f 4fbf
00000050: 8698 f9bc 7d1a 8b3f 9fc8 653e 0c06 2dbf
00000060: 3398 14bf aa84 c6be 3fb1 c6be 5c9d b13e
00000070: f865 143e 0bbb 653f 4fb2 0e3f 2797 50bf
00000080: f3cc d9be 8f6a 073f 2762 ebbe 6c5b 323f
00000090: 7a47 51bf 489f a33e 4f21 b73e fda7 00bf
-0.00028549312 0.23619063 -0.5943717 -0.69132066 1.174868 -0.6057453 0.8744795 -0.7791799
-0.9329612 -0.10616453 0.80714023 -0.26945668 0.7328044 0.70719236 0.058684204 -0.9274226
0.6117966 -0.25723487 -0.9823884 -0.8107892 -0.030468237 1.0867459 0.22439812 -0.6758735
-0.5804474 -0.3877309 -0.38807103 0.34690368 0.14492023 0.8973853 0.5574083 -0.8148064
-0.42539176 0.5289697 -0.45973322 0.6967075 -0.8174969 0.3195746 0.357676 -0.5025633

sequential_1/dense_4/MatMul f4 [10, 20]
00000000: 62ec a6be c6af 053f ad27 203f f063 38bf
00000010: fc4c aa3e 90e1 633d 5f1d 813e 9544 24bf
00000020: 3631 de3e 65a9 d73d cd37 83be 8aed 5c3f
00000030: d231 0e3f 619c b03d 0fd8 153f 33cd bf3e
00000040: 545a fcbd a0f1 013e 566a 433e 8255 6e3e
00000050: a08f 293f adf7 1e3e 48da fabe 3627 af3e
00000060: e21a 983d d02f a83e abac d63e b645 eabe
00000070: 6769 3ebf 8a52 103f 3aa4 3bbf 4fa4 45bf
00000080: d1a2 5cbd 4892 89bf 1389 07bf 5b8c 13bf
00000090: dbb5 1bbf 12fe 1f3e f3c0 273e 6dc1 fcbe
000000a0: ef13 6c3d 9036 853d cd0c ddbd f488 f53c
000000b0: ebda 623f 0441 133e 4905 8e3d 3787 e43d
000000c0: 9b38 303d bfcc 783c 6914 96bd f172 ae3e
000000d0: 07c9 113f 90fc 47bc cacd babe a1ba babd
000000e0: f1d9 033f 3f4c ce3e 470e ea3e 6aa9 bcbe
000000f0: 9357 04bf 3e20 023f c56a 013f 916e 21bf
00000100: 4ae4 273f 53ef 853e a685 263e 4f5b abbe
00000110: 1018 013e aaae 50be f3bf f4bd bcb4 bf3e
00000120: 8fb3 1d3f 3372 b43e eff9 a73e 5014 823e
00000130: 91f1 043f 091e 973e b3f5 b63e 4669 4c3e
00000140: bb3e 45bf 4d66 d03c e032 8bbd 8c0f 453f
00000150: 34d0 b33e a20d 1ebf 58ba 08bf 7af1 963f
00000160: a1b4 6a3e 9159 2dbf 1384 d4be 2dd5 01bf
00000170: 3a89 e4bd 44f7 c93e 0d7f d23e cec5 193f
00000180: a68b c63e c6b3 16bf ebac 10bf 1de9 cfbe
00000190: dfa6 d7be 4798 b0ba 0515 0c3f 3b48 16bf
000001a0: 9d2e b5be f28a e73e ef77 0d3f 982d c8be
000001b0: 5615 1c3f e717 d9be 0a77 25bf 1823 51bd
000001c0: d087 24bf c9f4 683e 04d1 98be e654 a63d
000001d0: f54e 34bf 7990 b53e 09bb 683e 748f 8cbe
000001e0: b076 3dbd c6f1 0fbe bcab a3bd a2b5 943e
000001f0: ad92 8d3e 1eeb cdbd 29ee 96bd 0700 d73e
00000200: 5047 253c 4da3 5a3f cf25 083f a9d6 323f
00000210: 1c90 353f 70fb 983e 08d5 7a3f f3b4 f7bd
00000220: 31c6 8a3e fd99 80bd 2fbb 1abd cb38 773f
00000230: 541a 1e3e 022b 243f 9c23 73be 0eb1 0dbe
00000240: d84f 35bf 579d 053f c48b 59be 5617 3cbf
00000250: 8967 3e3e 9e4e d73d c89d 0bbf 7917 29bf
00000260: eb7a bdbe 51d7 51bd bc5a 4f3e 4289 17bd
00000270: df8d e5be c43b c73e 3ba8 eb3e 44d8 32bf
00000280: ec92 c23e 20a5 773e 23fe 143e 8844 94bd
00000290: e35c 39bf 1623 983e a92c 183f 1af9 3dbe
000002a0: 5682 013e 77fd 9dbe 8764 85be 09da ccbd
000002b0: 7c3c f7be 47b2 b43c 9085 e4be df0c 6fbc
000002c0: 1e6b 0cbf 356d 203e a9d5 aa3e 324f cdbe
000002d0: 0325 84be b7ab db3e af19 82be c6cc e93e
000002e0: e54a 1abf 07cb 663e 44a4 903e 1b76 10be
000002f0: 1b52 b3be 80fc a73e 8faa b8be 1b83 9abe
00000300: 736f 08bf e25b 10bf 7f7d 6bbf 5bbc 3cbf
00000310: 027a 13bf a110 733e 2f00 6a3e dd15 6fbe
-0.3260222 0.52221334 0.6256054 -0.7202749 0.3326186 0.055635035 0.2521772 -0.6416715
0.4339692 0.10530356 -0.2562851 0.86299956 0.5554477 0.08623577 0.58532804 0.37461242
-0.12321916 0.12689829 0.19083533 0.23274806 0.6623478 0.15524168 -0.4899466 0.34209603
0.074270025 0.32848978 0.4192861 -0.4575631 -0.7437958 0.56375945 -0.73297465 -0.7720384
-0.05386621 -1.0747766 -0.52943534 -0.5763604 -0.60824364 0.15624264 0.16382198 -0.49366322
0.057636198 0.065045476 -0.10793457 0.02997253 0.8861529 0.1438027 0.06934602 0.11158603
0.043022733 0.015185534 -0.07328112 0.34072068 0.5694737 -0.012206212 -0.3648513 -0.09117628
0.5150443 0.40292546 0.45714018 -0.36848003 -0.5169613 0.5083045 0.5055354 -0.63059336
0.65582716 0.26159152 0.1626192 -0.334681 0.12606835 -0.20379129 -0.11950674 0.37442577
0.6160211 0.35243377 0.32807872 0.25406122 0.519311 0.29515103 0.3573433 0.19962034
-0.77048844 0.025439406 -0.06796813 0.7697685 0.35119784 -0.6173955 -0.5340934 1.1792443
0.22920467 -0.6771479 -0.41507015 -0.50715905 -0.111589864 0.3944646 0.41112557 0.6006745
0.38778418 -0.5886806 -0.5651385 -0.4060754 -0.421195 -0.0013473117 0.54719573 -0.58703965
-0.35387126 0.45223194 0.5526113 -0.39097285 0.60970056 -0.4240105 -0.64634764 -0.05105886
-0.64269733 0.22749628 -0.29846966 0.08121662 -0.7043298 0.35461786 0.22727598 -0.27453196
-0.046255767 -0.14057073 -0.0799174 0.29044825 0.27650967 -0.10054611 -0.07369644 0.41992208
0.010087803 0.8540543 0.5318269 0.69858795 0.7092302 0.29879332 0.9798131 -0.1209506
0.27104333 -0.06279371 -0.03777617 0.96571034 0.15439731 0.64128125 -0.23744053 -0.13837072
-0.70824957 0.52193207 -0.21244723 -0.7347311 0.18594183 0.10513042 -0.5453763 -0.6605144
-0.3700784 -0.051230732 0.20249456 -0.036996134 -0.44834802 0.38912785 0.46026787 -0.69861245
0.38002717 0.24184084 0.1455007 -0.07239634 -0.7240736 0.29714268 0.59443146 -0.18552056
0.12647375 -0.3085744 -0.2605326 -0.100025244 -0.48288333 0.022057666 -0.4463315 -0.014590471
-0.5485095 0.15666659 0.33366135 -0.40099484 -0.25809488 0.42904446 -0.2541022 0.45664042
-0.6027053 0.22538386 0.28250325 -0.14107554 -0.3502358 0.3280983 -0.36067626 -0.3017815
-0.5329506 -0.563902 -0.91988367 -0.7372491 -0.57608044 0.23736812 0.22851633 -0.23348184

sequential_1/dense_5/BiasAdd/ReadVariableOp f4 [4]
00000000: 23a9 893e 0a5f 9dbc afa9 88be 9df2 233d
0.26886854 -0.019210357 -0.26691958 0.040026296

sequential_1/dense_4/BiasAdd/ReadVariableOp f4 [10]
00000000: 3791 9b3d acc9 6a3e 480f 923d 12ef 023e
00000010: afd0 f73e 318a 9f3e 0f6a 913e 10a9 1e3e
00000020: c9c4 3e3e d36f 8b3c
0.07596057 0.22928494 0.07131821 0.1278651 0.484014 0.3116012 0.2840123 0.1549418
0.18629755 0.017021095

sequential_1/dense_3/BiasAdd/ReadVariableOp f4 [20]
00000000: dd07 20be 14a9 00be 452f 69be fbb6 bfbd
00000010: 8256 5f3e 7095 a7be 2022 b6be 7ee0 89bd
00000020: 4b05 8abe 562a a73e 7dd6 0a3e 0ed6 8c3e
00000030: 43de 6e3e cd68 1f3c 49a5 333e ea3c bbbd
00000040: 92b2 633e 1039 4fbe bb53 21be 0a9b c93e
-0.15628 -0.12564498 -0.22771938 -0.09361073 0.21810344 -0.327312 -0.3557291 -0.067322716
-0.26957163 0.32649487 0.13558383 0.2750706 0.23326974 0.009729576 0.1754352 -0.09142478
0.22236088 -0.20236611 -0.15754597 0.39376098

sequential_1/dense_3/MatMul i1 [20, 63] scale=0.01064841 zero_point=0
00000000: 0917 04fd d9f6 ff09 02f5 e6f0 0402 f40c
00000010: ec02 13ec f402 f4fa 0af9 021d e3f4 0117
00000020: 03f8 260d 0c29 0517 eaeb 0a2d f7e6 4114
00000030: f40b 1b10 e9f2 fa10 03f8 3305 e6ee 000e
00000040: f7fc fe35 c6f6 16da f60b e308 17cc f5e2
00000050: 3ef0 f50e 020a 050e 05f7 dfda 31f2 ee27
00000060: fdfb 0bf9 f5f4 fae4 31f2 f9f1 0506 eb03
00000070: 09e8 01e2 070c 0de8 010b f410 0ef2 0408
00000080: f300 23e9 ff18 e804 0bff 030f 03fb 012f
00000090: f006 0df9 ff03 fefe 03ca 0321 f4ce 05f9
000000a0: ea02 06d7 fed4 0408 fdee f11c 0401 0717
000000b0: f6f7 fd09 05f6 fe1f 1df5 1123 ecf7 0ff3
000000c0: 02c3 5311 f02e 08e7 28fc e416 270d b3fc
000000d0: 04ea fd07 fff3 0402 190f c005 0be9 030e
000000e0: edf3 09f9 fe11 d30f 0bfb 0d0b 0615 040a
000000f0: de01 e9f9 06fd 01e5 05f1 e109 070a 0ddf
0.095835686 0.24491343 0.04259364 -0.03194523 -0.41528797 -0.1064841 -0.01064841 0.095835686
0.02129682 -0.11713251 -0.27685866 -0.17037456 0.04259364 0.02129682 -0.12778091 0.12778091
-0.2129682 0.02129682 0.20231979 -0.2129682 -0.12778091 0.02129682 -0.12778091 -0.06389046
0.1064841 -0.07453887 0.02129682 0.3088039 -0.3088039 -0.12778091 0.01064841 0.24491343
0.03194523 -0.08518728 0.40463957 0.13842933 0.12778091 0.4365848 0.05324205 0.24491343
-0.23426501 -0.2236166 0.1064841 0.47917843 -0.095835686 -0.27685866 0.69214666 0.2129682
-0.12778091 0.11713251 0.28750706 0.17037456 -0.24491343 -0.14907774 -0.06389046 0.17037456
0.03194523 -0.08518728 0.5430689 0.05324205 -0.27685866 -0.19167137 0.0 0.14907774
-0.095835686 -0.04259364 -0.02129682 0.56436574 -0.6176078 -0.1064841 0.23426501 -0.40463957
-0.1064841 0.11713251 -0.3088039 0.08518728 0.24491343 -0.5537173 -0.11713251 -0.3194523
0.66020143 -0.17037456 -0.11713251 0.14907774 0.02129682 0.1064841 0.05324205 0.14907774
0.05324205 -0.095835686 -0.3513975 -0.40463957 0.5217721 -0.14907774 -0.19167137 0.41528797
-0.03194523 -0.05324205 0.11713251 -0.07453887 -0.11713251 -0.12778091 -0.06389046 -0.2981555
0.5217721 -0.14907774 -0.07453887 -0.15972614 0.05324205 0.06389046 -0.2236166 0.03194523
0.095835686 -0.25556183 0.01064841 -0.3194523 0.07453887 0.12778091 0.13842933 -0.25556183
0.01064841 0.11713251 -0.12778091 0.17037456 0.14907774 -0.14907774 0.04259364 0.08518728
-0.13842933 0.0 0.37269434 -0.24491343 -0.01064841 0.25556183 -0.25556183 0.04259364
0.11713251 -0.01064841 0.03194523 0.15972614 0.03194523 -0.05324205 0.01064841 0.5004753
-0.17037456 0.06389046 0.13842933 -0.07453887 -0.01064841 0.03194523 -0.02129682 -0.02129682
0.03194523 -0.5750141 0.03194523 0.3513975 -0.12778091 -0.5324205 0.05324205 -0.07453887
-0.23426501 0.02129682 0.06389046 -0.4365848 -0.02129682 -0.46853003 0.04259364 0.08518728
-0.03194523 -0.19167137 -0.15972614 0.2981555 0.04259364 0.01064841 0.07453887 0.24491343
-0.1064841 -0.095835686 -0.03194523 0.095835686 0.05324205 -0.1064841 -0.02129682 0.33010072
0.3088039 -0.11713251 0.18102297 0.37269434 -0.2129682 -0.095835686 0.15972614 -0.13842933
0.02129682 -0.649553 0.88381803 0.18102297 -0.17037456 0.48982686 0.08518728 -0.26621026
0.4259364 -0.04259364 -0.2981555 0.23426501 0.41528797 0.13842933 -0.8199276 -0.04259364
0.04259364 -0.23426501 -0.03194523 0.07453887 -0.01064841 -0.13842933 0.04259364 0.02129682
0.26621026 0.15972614 -0.6814982 0.05324205 0.11713251 -0.24491343 0.03194523 0.14907774
-0.20231979 -0.13842933 0.095835686 -0.07453887 -0.02129682 0.18102297 -0.47917843 0.15972614
0.11713251 -0.05324205 0.13842933 0.11713251 0.06389046 0.2236166 0.04259364 0.1064841
-0.36204594 0.01064841 -0.24491343 -0.07453887 0.06389046 -0.03194523 0.01064841 -0.28750706
0.05324205 -0.15972614 -0.33010072 0.095835686 0.07453887 0.1064841 0.13842933 -0.3513975
