model/landmark_classifier/landmark-matome-case3.tflite (tflite, 5032 bytes, 4 tensors)

sequential_6/dense_19/MatMul f4 [6, 35]
0	0x3f2a5242	0.66531765
1	0xbeee70c1	-0.465704
2	0xbecaedf7	-0.39634678
3	0x3f5c5d46	0.86079824
4	0xbe5e6e78	-0.21721828
5	0x3f17a28b	0.59232396
6	0xc0038391	-2.0549052
7	0xbe661b37	-0.22471319
8	0x3f188eb0	0.59592724
9	0xbd8ad743	-0.06779339
10	0xbf30c1e3	-0.6904585
11	0xbdd217d2	-0.102584496
12	0xc020fb34	-2.5153322
13	0xbf1e5d1a	-0.6186081
14	0xbf6f9f50	-0.93602467
15	0xbce928a8	-0.02846177
16	0xbfdda0cc	-1.7314696
17	0xbed421d8	-0.4143207
18	0x3f4d3057	0.80151886
19	0xbfae9063	-1.3637813
20	0x3f21017e	0.628929
21	0x3f377bc2	0.71673214
22	0x3f9642b4	1.1739106
23	0xbf43933c	-0.76396537
24	0x3de9563a	0.113933995
25	0xbf7f3acc	-0.9969909
26	0xbfa08529	-1.2540637
27	0xbf24b723	-0.64341944
28	0x3df8b38a	0.12143619
29	0x3f6db0fa	0.9284817
30	0xbe041459	-0.12898387
31	0x3f49a1fd	0.787628
32	0xbfbde74a	-1.4836209
33	0x3f0ce912	0.5504314
34	0x3f41a32c	0.75639606
35	0xbf62a756	-0.88536584
36	0xbfc12bcc	-1.5091491
37	0x3f2e0dfc	0.6799009
38	0xbf8059fa	-1.0027459
39	0x3ea5891b	0.32331166
40	0x3ed53b84	0.4164697
41	0x3edba465	0.4289886
42	0xbf182069	-0.59424454
43	0x3eb710bd	0.35754958
44	0xbdfee246	-0.12445502
45	0x3f68b19b	0.90896004
46	0xbf976103	-1.1826481
47	0x3f1b50ab	0.60669965
48	0xbd573485	-0.05254032
49	0x3f8f4c66	1.119519
50	0xbe1fcd26	-0.15605602
51	0xbf9618ca	-1.1726315
52	0x3ed6c88a	0.41949874
53	0x3f4a9562	0.7913419
54	0x3e5aa09a	0.21350327
55	0xbf945725	-1.1589094
56	0x3e5cd164	0.21564251
57	0x3dcc2474	0.099678904
58	0x3e6fcef3	0.23418789
59	0x3d2d0df6	0.042249642
60	0x3cb0f0d0	0.021599203
61	0x3e56a185	0.20960052
62	0x3f3b8b42	0.73259366
63	0xbfb2bbdb	-1.3963579
64	0x3f53ab46	0.8268322
65	0xc0025d40	-2.0369415
66	0x3fa0832c	1.254003
67	0x3f5e78f5	0.86903316
68	0x3e9ec06a	0.31006175
69	0x3ed62bad	0.41830197
70	0xbf75e3f3	-0.9605095
71	0x3f390802	0.72277844
72	0xbea3cf99	-0.31994322
73	0xbf8cd8e1	-1.1003686
74	0xbf82e0c5	-1.0224844
75	0xbf838ed1	-1.0277959
76	0x3f52e587	0.8238148
77	0x3f730e3f	0.9494361
78	0xbfa752a3	-1.3072094
79	0x3efa323b	0.48866448
80	0xbf5e4bed	-0.86834604
81	0xbf46a803	-0.77600116
82	0xbf18abb1	-0.5963698
83	0x3e8eb568	0.27872777
84	0xbf5a68d8	-0.8531623
85	0x3e83fc34	0.25778353
86	0x3f92da4f	1.1472872
87	0xbe78f753	-0.24313097
88	0xbf463ecc	-0.7743957
89	0xbed05338	-0.4068849
90	0x3f94f7c2	1.163811
91	0xbf6df5e9	-0.92953354
92	0xbe659f2e	-0.22424003
93	0xbc1a46b9	-0.009416276
94	0xbf9169e5	-1.1360441
95	0x3f2077f1	0.62683016
96	0x3e879a47	0.26484892
97	0xbf93fe64	-1.1562009
98	0xbf73137f	-0.94951624
99	0xbe69abab	-0.22819392
100	0x3f6ac155	0.9170125
101	0xbfcab961	-1.5837823
102	0x3f85fda3	1.0468029
103	0xbea1c10f	-0.31592605
104	0xbf63efa5	-0.89037544
105	0xbecab61c	-0.39592063
106	0x3e653660	0.22384024
107	0xbf9665ea	-1.1749852
108	0xbf593a4f	-0.84854597
109	0x3ed70bfb	0.42001328
110	0xbe6f5141	-0.2337084
111	0xbea89cfa	-0.32932264
112	0xbf5f7ba3	-0.8729803
113	0xbf0ca5a1	-0.5494023
114	0x3f448d78	0.76778364
115	0x3f19024b	0.59769124
116	0xbf8d8638	-1.1056585
117	0xbf6178c6	-0.8807491
118	0x3f52d096	0.82349527
119	0xbe7c861e	-0.24660537
120	0x3dbfb87a	0.09361358
121	0x3eea375b	0.45745358
122	0xbf3f1281	-0.7463761
123	0x3f6f5eed	0.9350422
124	0x3efd3ff5	0.49462858
125	0xbf71e236	-0.94485795
126	0xbf38f797	-0.7225279
127	0xbe00bb44	-0.12571436
128	0x3e1857a1	0.14877178
129	0xbf860f94	-1.0473504
130	0x3f6eaa10	0.93228245
131	0x3f77ec67	0.96845096
132	0xbf9da02b	-1.2314504
133	0xbe85f2b4	-0.2616173
134	0x3f03e8f6	0.51527345
135	0xbd89cc94	-0.06728473
136	0xbeb16ddf	-0.34654137
137	0x3f83c920	1.0295753
138	0xbe039485	-0.12849624
139	0x3cf871fd	0.030327791
140	0x3f39e98d	0.72621995
141	0x3f348b94	0.7052548
142	0xbf34bdd7	-0.7060217
143	0x3f539208	0.826447
144	0xbf61c138	-0.88185453
145	0xbf6806ea	-0.9063555
146	0x3e8712fb	0.26381668
147	0xbe8ddf3e	-0.27709383
148	0xbecd082f	-0.40045306
149	0xbf8a8588	-1.0822
150	0xbfcfa6b5	-1.622275
151	0x3f4013ab	0.7503001
152	0xbf987ac0	-1.191246
153	0xbfb836b0	-1.4391689
154	0x3e37d032	0.17950514
155	0xbe31e431	-0.17372204
156	0x3f648bba	0.89275706
157	0x3f898c5d	1.074596
158	0xbf06279e	-0.524042
159	0x3f40bf9a	0.7529236
160	0x3ec0226c	0.37526262
161	0xbe9f4b97	-0.31112358
162	0xbe745245	-0.23859508
163	0xbf793b06	-0.9735569
164	0x3f7aaec9	0.9792295
165	0xbf7e4213	-0.9931957
166	0xbd73ccac	-0.059521362
167	0xbd02a79e	-0.031898133
168	0x3f9209dd	1.140926
169	0xbf84acbc	-1.0365214
170	0x3f5d0a7a	0.8634411
171	0xbf904e50	-1.1273899
172	0x3fb2bd12	1.396395
173	0xbd7a5f04	-0.06112577
174	0xbf77f56e	-0.9685887
175	0x3e157baa	0.14597955
176	0xbabc48ab	-0.0014364918
177	0x3e2ee1ce	0.17078325
178	0x3e3edea8	0.18639624
179	0x3edaeaa2	0.42757136
180	0xbcbf2a72	-0.02333567
181	0x3f55d3a2	0.8352605
182	0x3f62a88d	0.8853844
183	0xbef1e5b5	-0.47245565
184	0xbe9edf28	-0.3102963
185	0x3ed8762b	0.42277655
186	0x3e878b39	0.26473406
187	0x3fb5ec05	1.4212652
188	0x3f039105	0.5139316
189	0xbf476e8e	-0.7790307
190	0x3e53c46a	0.20680395
191	0xbf2c1721	-0.6722279
192	0xbe8170d3	-0.2528139
193	0xbf9dc476	-1.232558
194	0xbd68b9b9	-0.056817744
195	0xbe8ac96c	-0.27106798
196	0x3e6b1a4e	0.22959253
197	0xbf30259d	-0.68807393
198	0x3f30f032	0.6911651
199	0xbe5add25	-0.21373422
200	0x3ea421a5	0.3205692
201	0xbed1c8ae	-0.4097342
202	0xbe320171	-0.17383362
203	0x3ef889ae	0.4854254
204	0xbf790023	-0.97265834
205	0x3ed40c0b	0.41415438
206	0xbf8bdf15	-1.0927454
207	0xbffbc0c0	-1.9668198
208	0x3e86c1a0	0.263196
209	0x3f0a343f	0.5398597

sequential_6/dense_19/BiasAdd/ReadVariableOp f4 [6]
0	0x3de5f748	0.11228806
1	0xbc35b0f3	-0.011089551
2	0x3bacd7a7	0.005274731
3	0xbbbc3f3e	-0.0057448437
4	0x3e191b38	0.1495179
5	0xbe54731e	-0.20747039

sequential_6/dense_18/BiasAdd/ReadVariableOp f4 [35]
0	0x3df902f0	0.121587634
1	0x3c7d4ac9	0.015459725
2	0xbdc2cf42	-0.095121875
3	0x3e87af70	0.26501036
4	0xbe0ca20d	-0.13733692
5	0x3d3c25b8	0.04593441
6	0xbe12c062	-0.143312
7	0xbdd25882	-0.10270788
8	0x3e938181	0.2880974
9	0x3cd5999d	0.026074225
10	0xbbbf0e46	-0.005830559
11	0x3d90c802	0.070693985
12	0xbf060dc5	-0.5236476
13	0xbec6c0d5	-0.38818994
14	0x3f060328	0.52348566
15	0xbc8a8473	-0.01690886
16	0x3e825728	0.2545712
17	0x3e018845	0.12649639
18	0x3ebfddd0	0.37473917
19	0x3e889efb	0.26683792
20	0x3e2c890e	0.16849157
21	0x3d101c41	0.035183195
22	0x3db2148b	0.086953245
23	0xbe80903c	-0.25110042
24	0x3f09de46	0.5385479
25	0xbe4d9b5c	-0.20078796
26	0x3ea0a383	0.3137475
27	0x3debefea	0.11520369
28	0xbb89732e	-0.0041946387
29	0x3ec29874	0.38006938
30	0xbd41b44a	-0.047291078
31	0x3ebdc6f5	0.37065855
32	0x3f20446c	0.62604403
33	0xbcd40305	-0.025880346
34	0xbd805edd	-0.06268094

sequential_6/dense_18/MatMul i1 [35, 63] scale=0.011440228 zero_point=0
0	0xfc	-0.04576091
1	0xfc	-0.04576091
2	0x00	0.0
3	0x2b	0.4919298
4	0xcd	-0.5834516
5	0x2a	0.48048955
6	0x26	0.43472865
7	0xd1	-0.5376907
8	0x14	0.22880456
9	0x27	0.44616887
10	0xc6	-0.6635332
11	0x22	0.38896775
12	0x2d	0.51481026
13	0xd7	-0.46904933
14	0x2d	0.51481026
15	0x21	0.3775275
16	0xed	-0.21736433
17	0xe5	-0.30888614
18	0x21	0.3775275
19	0x01	0.011440228
20	0xcd	-0.5834516
21	0xee	-0.2059241
22	0x19	0.2860057
23	0xd8	-0.45760912
24	0xec	-0.22880456
25	0x0d	0.14872296
26	0xed	-0.21736433
27	0x36	0.6177723
28	0x21	0.3775275
29	0xd3	-0.51481026
30	0x15	0.24024478
31	0xe4	-0.3203264
32	0xd1	-0.5376907
33	0xf7	-0.10296205
34	0xe6	-0.29744592
35	0xf2	-0.1601632
36	0x0d	0.14872296
37	0xf3	-0.14872296
38	0x08	0.09152182
39	0x10	0.18304364
40	0x15	0.24024478
41	0xd3	-0.51481026
42	0x11	0.19448388
43	0xcc	-0.59489185
44	0xed	-0.21736433
45	0xf8	-0.09152182
46	0xe9	-0.26312524
47	0xf6	-0.11440228
48	0x14	0.22880456
49	0xeb	-0.24024478
50	0x1f	0.35464707
51	0xfc	-0.04576091
52	0x0e	0.1601632
53	0xdd	-0.40040797
54	0xff	-0.011440228
55	0xd1	-0.5376907
56	0xfe	-0.022880455
57	0x0a	0.11440228
58	0xc0	-0.7321746
59	0x05	0.05720114
60	0x14	0.22880456
61	0xd7	-0.46904933
62	0x15	0.24024478
63	0xec	-0.22880456
64	0xf3	-0.14872296
65	0x12	0.2059241
66	0x04	0.04576091
67	0x1a	0.29744592
68	0xbe	-0.755055
69	0x1c	0.3203264
70	0xe6	-0.29744592
71	0xce	-0.5720114
72	0xe2	-0.34320682
73	0xdd	-0.40040797
74	0xe0	-0.3660873
75	0xaa	-0.9838596
76	0x01	0.011440228
77	0xd4	-0.50337005
78	0x26	0.43472865
79	0xe5	-0.30888614
80	0xe6	-0.29744592
81	0xf6	-0.11440228
82	0xef	-0.19448388
83	0xd3	-0.51481026
84	0x0a	0.11440228
85	0xf7	-0.10296205
86	0xe9	-0.26312524
87	0x05	0.05720114
88	0x1a	0.29744592
89	0xda	-0.43472865
90	0x04	0.04576091
91	0xdb	-0.42328843
92	0xed	-0.21736433
93	0xea	-0.25168502
94	0xf1	-0.17160341
95	0xdc	-0.4118482
96	0x0e	0.1601632
97	0x24	0.4118482
98	0xe2	-0.34320682
99	0x1d	0.3317666
100	0x39	0.652093
101	0x00	0.0
102	0x0b	0.12584251
103	0xc9	-0.6292125
104	0xe7	-0.2860057
105	0xf0	-0.18304364
106	0xfc	-0.04576091
107	0xdc	-0.4118482
108	0x07	0.0800816
109	0x0c	0.13728273
110	0x0a	0.11440228
111	0x12	0.2059241
112	0x42	0.755055
113	0x54	0.9609791
114	0xd0	-0.5491309
115	0xaf	-0.92665845
116	0x01	0.011440228
117	0xfa	-0.068641365
118	0xad	-0.9495389
119	0xfa	-0.068641365
120	0xf8	-0.09152182
121	0xfa	-0.068641365
122	0x17	0.26312524
123	0xeb	-0.24024478
124	0x11	0.19448388
125	0x36	0.6177723
126	0x0f	0.17160341
127	0xef	-0.19448388
128	0x0c	0.13728273
129	0xcd	-0.5834516
130	0x15	0.24024478
131	0x20	0.3660873
132	0xdc	-0.4118482
133	0xfb	-0.05720114
134	0x05	0.05720114
135	0xa0	-1.0982618
136	0x13	0.21736433
137	0x06	0.068641365
138	0x81	-1.4529089
139	0xf9	-0.0800816
140	0x1b	0.30888614
141	0x11	0.19448388
142	0xfa	-0.068641365
143	0x00	0.0
144	0x02	0.022880455
145	0x08	0.09152182
146	0x09	0.10296205
147	0xe9	-0.26312524
148	0xfb	-0.05720114
149	0x03	0.034320682
150	0xf3	-0.14872296
151	0x13	0.21736433
152	0x1d	0.3317666
153	0x36	0.6177723
154	0xf7	-0.10296205
155	0x04	0.04576091
156	0x0a	0.11440228
157	0x02	0.022880455
158	0x01	0.011440228
159	0x19	0.2860057
160	0xf8	-0.09152182
161	0xfe	-0.022880455
162	0x02	0.022880455
163	0xff	-0.011440228
164	0x13	0.21736433
165	0x38	0.6406528
166	0x00	0.0
167	0x12	0.2059241
168	0x2b	0.4919298
169	0xef	-0.19448388
170	0xfe	-0.022880455
171	0x28	0.45760912
172	0xe2	-0.34320682
173	0x07	0.0800816
174	0x39	0.652093
175	0xf2	-0.1601632
176	0xfa	-0.068641365
177	0x2a	0.48048955
178	0x17	0.26312524
179	0x25	0.42328843
180	0x3e	0.70929414
181	0xf4	-0.13728273
182	0x0b	0.12584251
183	0x60	1.0982618
184	0xe2	-0.34320682
185	0x02	0.022880455
186	0x62	1.1211423
187	0xd1	-0.5376907
188	0xf9	-0.0800816
189	0x14	0.22880456
190	0xf0	-0.18304364
191	0x02	0.022880455
192	0x0c	0.13728273
193	0xe3	-0.3317666
194	0x2e	0.5262505
195	0x09	0.10296205
196	0xcd	-0.5834516
197	0x20	0.3660873
198	0xdb	-0.42328843
199	0xc8	-0.6406528
200	0x2f	0.5376907
201	0xd4	-0.50337005
202	0xcf	-0.56057113
203	0x39	0.652093
204	0x09	0.10296205
205	0x08	0.09152182
206	0xc3	-0.69785386
207	0xde	-0.38896775
208	0x12	0.2059241
209	0xc4	-0.68641365
210	0xe9	-0.26312524
211	0x1c	0.3203264
212	0xf2	-0.1601632
213	0x02	0.022880455
214	0x2b	0.4919298
215	0xf4	-0.13728273
216	0xea	-0.25168502
217	0x20	0.3660873
218	0xce	-0.5720114
219	0xf7	-0.10296205
220	0x08	0.09152182
221	0xda	-0.43472865
222	0xff	-0.011440228
223	0x25	0.42328843
224	0xd6	-0.48048955
225	0x13	0.21736433
226	0x2c	0.50337005
227	0x08	0.09152182
228	0xea	-0.25168502
229	0x17	0.26312524
230	0xde	-0.38896775
231	0x07	0.0800816
232	0xd2	-0.5262505
233	0xf0	-0.18304364
234	0x02	0.022880455
235	0xd1	-0.5376907
236	0xec	-0.22880456
237	0x1e	0.34320682
238	0xe2	-0.34320682
239	0x11	0.19448388
240	0xca	-0.6177723
241	0x12	0.2059241
242	0xf6	-0.11440228
243	0xda	-0.43472865
244	0xc2	-0.70929414
245	0xed	-0.21736433
246	0xf2	-0.1601632
247	0xbb	-0.7893757
248	0xef	-0.19448388
249	0x03	0.034320682
250	0xd1	-0.5376907
251	0x01	0.011440228
252	0xf1	-0.17160341
253	0xef	-0.19448388
254	0x0b	0.12584251
255	0x0a	0.11440228
