model/landmark_classifier/landmark-matome.tflite (tflite, 4544 bytes, 6 tensors)

sequential/dense_2/MatMul f4 [4, 10]
0	0xbeaf3e24	-0.34227097
1	0xbf82c37e	-1.021591
2	0x3f2bb312	0.67070115
3	0x3ee06fde	0.43835348
4	0x3f4fa38b	0.8110892
5	0xbf14f233	-0.58182067
6	0xbeec7514	-0.46183074
7	0x3f2070d0	0.6267214
8	0x3f0e6d51	0.55635554
9	0x3dd27b81	0.10277463
10	0xbe2a37f7	-0.16622911
11	0x3eff2bdc	0.4983815
12	0xbee14563	-0.4399825
13	0x3e40603e	0.18786713
14	0xbf2afad1	-0.66788965
15	0xbded838c	-0.11597356
16	0xbec665e3	-0.38749608
17	0x3f3861db	0.72024316
18	0xbe9afd52	-0.30271393
19	0xbe932ede	-0.28746694
20	0xbdc0f12f	-0.09421002
21	0x3ec1a497	0.37820885
22	0x3e38ebf9	0.18058766
23	0xbf8abec5	-1.0839468
24	0x3e2b7f1b	0.16747706
25	0x3f5ca167	0.8618378
26	0x3f3496e3	0.70542735
27	0xbe8d024e	-0.2754082
28	0x3e820711	0.25396016
29	0xbf1f9d85	-0.6234973
30	0xba71ad5c	-0.0009219253
31	0x3efa3338	0.48867202
32	0xbf11ea22	-0.56997883
33	0x3e4719fb	0.19443505
34	0xbf265082	-0.64966595
35	0xbda5d057	-0.08096378
36	0x3c7651e1	0.01503417
37	0x3f38fe62	0.7226316
38	0xbf159db4	-0.5844376
39	0x3e83137d	0.25600806

sequential/dense_1/MatMul f4 [10, 20]
0	0xbeba6772	-0.36407048
1	0x3de0d9fe	0.10979079
2	0xbe9e6663	-0.3093749
3	0xbeea3ca9	-0.45749405
4	0x3cb25361	0.021768274
5	0xbe5e5ee4	-0.21715885
6	0xbda3ee8f	-0.08004486
7	0x3cffe98f	0.0312393
8	0x3df52396	0.11969678
9	0xbcc84c31	-0.024450393
10	0xbdfb41b4	-0.12268391
11	0xbd8d5b46	-0.06902175
12	0xbe98dbc2	-0.29855162
13	0x3cbc081c	0.022953086
14	0xbea2896c	-0.3174547
15	0x3e8e2b71	0.27767518
16	0xbecc31be	-0.398817
17	0xbe94c448	-0.29056
18	0x3e3c50b4	0.18390161
19	0xbec54c42	-0.38534743
20	0x3f150163	0.5820524
21	0xbe57c243	-0.21070199
22	0x3d9459e3	0.07243707
23	0xbe9addb9	-0.30247286
24	0x3e81fbd0	0.2538743
25	0x3ec30bea	0.38095027
26	0xbea7414f	-0.32667014
27	0x3f108b5a	0.56462634
28	0x3f488b00	0.783371
29	0xbee3d15f	-0.44495675
30	0x3ddd8c2f	0.108177535
31	0x3f3fe4f9	0.7495876
32	0xbeea1db3	-0.45725784
33	0xbed47c44	-0.41501057
34	0xbf232cc1	-0.63740164
35	0x3e2c88f4	0.16849118
36	0x3f0fdff7	0.5620112
37	0xbe43e2c3	-0.19129471
38	0x3f4a896e	0.7911595
39	0xbdfe931b	-0.12430402
40	0xbe2879aa	-0.16452661
41	0xbe7caa55	-0.24674352
42	0x3e06bee7	0.13158761
43	0x3e57e88a	0.210848
44	0xbedc5bb9	-0.4303873
45	0xbe741c83	-0.23839001
46	0xbdf14755	-0.11781184
47	0xbec9daad	-0.3942465
48	0xbd0b870e	-0.034064345
49	0x3e906856	0.28204602
50	0x3ea5ba2d	0.32368603
51	0xbe78aaf6	-0.24283966
52	0x3f0e651a	0.5562302
53	0x3f1ea40f	0.61969084
54	0x3f147f56	0.580068
55	0x3eb4581d	0.35223475
56	0xbea91475	-0.3302342
57	0xbec5b78a	-0.38616592
58	0xbe2fc8ef	-0.17166494
59	0x3f4c0644	0.7969706
60	0x3e52af5a	0.20574704
61	0x3f1d1813	0.6136486
62	0x3f22635c	0.6343286
63	0x3ef92f06	0.4866869
64	0xbee79499	-0.4523056
65	0xbe85a05c	-0.26098907
66	0xbf18346c	-0.5945499
67	0x3dd74e01	0.10512925
68	0x3def0e1d	0.11672614
69	0xbe5d56d1	-0.21615149
70	0x3ec65957	0.38740036
71	0x3d34ba2f	0.04412287
72	0x3ecd3a8d	0.40083733
73	0xbed07f3f	-0.4072208
74	0x3ea4cf2b	0.32189307
75	0x3f2b87e6	0.6700424
76	0x3e68be70	0.22728896
77	0xbec46c81	-0.38364032
78	0xbd5e2f64	-0.054244414
79	0x3e5672b8	0.20942199
80	0x3eee9f0d	0.4660572
81	0x3f0ec638	0.5577121
82	0xbdea69ef	-0.114459865
83	0x3e6117ed	0.21981783
84	0x3ec7485e	0.389224
85	0x3dd63d3f	0.104609005
86	0x3edb9a96	0.42891377
87	0xbddedfbb	-0.10882517
88	0x3c906c73	0.017629838
89	0x3f0a2c5c	0.5397394
90	0x3ebc0c0c	0.3672794
91	0xbe41b288	-0.1891576
92	0x3f15a8f1	0.5846091
93	0x3f704077	0.93848366
94	0x3f178dba	0.5920063
95	0xbe151fc3	-0.14562897
96	0xbd7ab7a7	-0.0612103
97	0x3e3a09d3	0.1816781
98	0xbdaa37d9	-0.08311433
99	0x3f2c4ef1	0.67307955
100	0x3e4b816a	0.19873586
101	0xbea4a48e	-0.32156795
102	0xbf02a7b9	-0.51037174
103	0xbe9ebd7c	-0.3100394
104	0x3ed47ed1	0.41503003
105	0x3f09c456	0.5381521
106	0x3e8ac8ad	0.27106228
107	0x3e16fa97	0.1474403
108	0x3ee1ffad	0.44140378
109	0xbe1966fc	-0.14980692
110	0xbec3241c	-0.38113487
111	0xbd15f673	-0.036611985
112	0xbd5a0a69	-0.053232584
113	0x3f1a8cb7	0.60370964
114	0xbed60c8d	-0.4180645
115	0xbf1215cb	-0.57064503
116	0x3f1f07e6	0.6212143
117	0x3efd4115	0.49463716
118	0xbd6ac304	-0.057314888
119	0xbda87b11	-0.08226598
120	0x3eab4564	0.33451378
121	0xbd29173b	-0.04128192
122	0xbdd232a3	-0.102635644
123	0xbe91381b	-0.28363118
124	0x3d3a93a2	0.04555095
125	0x3f23e002	0.64013684
126	0x3e894987	0.2681391
127	0x3e208fe7	0.15679894
128	0xbd22a5c0	-0.039708853
129	0x3ec08f10	0.37609148
130	0xbebd54fd	-0.36978903
131	0xbd105f41	-0.03524709
132	0xbe47f9c1	-0.19528867
133	0x3e143886	0.14474687
134	0x3e4a7416	0.19770846
135	0xbeb4bd72	-0.35300785
136	0x3ce600ba	0.028076518
137	0x3ee0cb47	0.43905088
138	0x3ea61c55	0.3244349
139	0xbea4bd2e	-0.32175583
140	0x3ec033ae	0.37539428
141	0x3f159464	0.5842955
142	0x3f11f5b4	0.5701554
143	0x3cf7875d	0.030215913
144	0xbee04cb7	-0.4380853
145	0xbe86f6cd	-0.2636017
146	0xbf66abba	-0.90105784
147	0x3c42fd80	0.011901259
148	0x3cba7b27	0.022763802
149	0xbf7b5c09	-0.9818731
150	0x3f2d0b85	0.675957
151	0x3e95a3af	0.29226443
152	0x3eea03f7	0.4570615
153	0xbe839262	-0.2569762
154	0x3f1df44f	0.6170091
155	0x3ee6154d	0.44938126
156	0x3e961865	0.29315487
157	0xbebd492b	-0.36969885
158	0x3eb437e1	0.35198882
159	0x3f04cf74	0.5187905
160	0x3ea15192	0.31507546
161	0x3e347539	0.17622842
162	0xbe78904e	-0.24273798
163	0x3e896da3	0.2684146
164	0x3ecc2eb3	0.3987938
165	0x3ec8322e	0.39100784
166	0x3e84fef5	0.25975767
167	0x3e38ee55	0.18059666
168	0xbdc583de	-0.09644292
169	0x3f432cdf	0.7624034
170	0xbef1d88d	-0.47235528
171	0xbd55c9ae	-0.05219429
172	0xbe88a6ef	-0.2668986
173	0x3e04cc08	0.12968457
174	0x3f22d9e8	0.6361375
175	0xbeb174f7	-0.3465955
176	0xbbbdf457	-0.00579695
177	0x3f1932d1	0.59843165
178	0x3ec22c8b	0.3792461
179	0x3f121691	0.57065684
180	0xbd99b9fc	-0.07506177
181	0xbd9e8cb4	-0.07741681
182	0x3d7ff637	0.06249067
183	0xbd8706e0	-0.06593108
184	0x3d0c9e38	0.034330577
185	0x3e10bdd0	0.14134908
186	0xbde54a56	-0.11195819
187	0xbea7fb46	-0.32808894
188	0xbe9cda80	-0.30635452
189	0xbe911e9b	-0.28343663
190	0x3e106389	0.1410047
191	0xbcc2e0fe	-0.023788925
192	0xbde3b553	-0.11118569
193	0xbed2cc35	-0.41171423
194	0x3e74c595	0.23903497
195	0x3db04729	0.08607323
196	0xbd7b8382	-0.061404712
197	0xbe5fa498	-0.21840131
198	0xbd4154e1	-0.047200087
199	0x3e046057	0.12927376

sequential/dense/BiasAdd/ReadVariableOp f4 [20]
0	0x3bea599e	0.0071517965
1	0x3dc2aed9	0.09506006
2	0xbdd97b4d	-0.10619221
3	0x3e0d7fc0	0.13818264
4	0xbd07da00	-0.033166885
5	0xbe0b0c43	-0.13578896
6	0xbd5cd1d5	-0.05391105
7	0xbcf6ea97	-0.030141158
8	0xbdf142e0	-0.117803335
9	0x3e17f44b	0.14839284
10	0xbbdd4e2f	-0.006753705
11	0xbe085c47	-0.13316451
12	0xb97ae8f0	-0.00023928634
13	0xbce0d924	-0.02744729
14	0xbcb08ee5	-0.021552512
15	0xbdba317a	-0.09091468
16	0xbe061ecb	-0.13097684
17	0x3b9c482c	0.0047693457
18	0xbda700f7	-0.08154481
19	0x3da7fa2f	0.082020156

sequential/dense_2/BiasAdd/ReadVariableOp f4 [4]
0	0xbe410b1e	-0.18851897
1	0x3e58524b	0.21125142
2	0xbe7037a4	-0.23458725
3	0x3e2fac74	0.1715563

sequential/dense_1/BiasAdd/ReadVariableOp f4 [10]
0	0xbd3db5d3	-0.04631598
1	0x3ec442b5	0.38332143
2	0xbcdd7057	-0.027031107
3	0x3ec29771	0.38006166
4	0x3e285bb7	0.16441236
5	0x3bad7dfe	0.0052945605
6	0xbdf15eea	-0.117856815
7	0x3eebe9c4	0.46076787
8	0x3d8e5639	0.069500394
9	0xbdacbe7d	-0.0843477

sequential/dense/MatMul i1 [20, 63] scale=0.0078382855 zero_point=0
0	0xff	-0.0078382855
1	0x20	0.25082514
2	0xe0	-0.25082514
3	0x19	0.19595714
4	0xc6	-0.45462057
5	0x06	0.04702971
6	0xfc	-0.031353142
7	0xe3	-0.22731028
8	0xff	-0.0078382855
9	0xf8	-0.062706284
10	0xd6	-0.329208
11	0xf4	-0.09405942
12	0x11	0.13325085
13	0x0e	0.109735996
14	0xde	-0.2665017
15	0x1e	0.23514856
16	0xd5	-0.33704627
17	0xe6	-0.20379542
18	0x20	0.25082514
19	0xfb	-0.03919143
20	0xd7	-0.3213697
21	0xf1	-0.11757428
22	0xdf	-0.25866342
23	0xf2	-0.109735996
24	0x19	0.19595714
25	0xf7	-0.07054457
26	0xee	-0.14108914
27	0x11	0.13325085
28	0xce	-0.39191428
29	0xd6	-0.329208
30	0x2d	0.35272285
31	0x03	0.023514856
32	0xda	-0.29785484
33	0xef	-0.13325085
34	0x28	0.31353143
35	0x0b	0.08622114
36	0xe2	-0.23514856
37	0x36	0.42326742
38	0x16	0.17244229
39	0x1c	0.21947199
40	0xea	-0.17244229
41	0xe0	-0.25082514
42	0x24	0.28217828
43	0x0a	0.07838286
44	0x1c	0.21947199
45	0xf4	-0.09405942
46	0x0b	0.08622114
47	0x06	0.04702971
48	0xe9	-0.18028057
49	0x11	0.13325085
50	0xf5	-0.08622114
51	0x1c	0.21947199
52	0xe3	-0.22731028
53	0xe3	-0.22731028
54	0x0a	0.07838286
55	0x2e	0.36056113
56	0xfa	-0.04702971
57	0xf7	-0.07054457
58	0x24	0.28217828
59	0xef	-0.13325085
60	0x09	0.07054457
61	0x1d	0.22731028
62	0x01	0.0078382855
63	0xf9	-0.054867998
64	0x16	0.17244229
65	0xed	-0.14892742
66	0x10	0.12541257
67	0xd0	-0.3762377
68	0xec	-0.15676571
69	0x27	0.30569315
70	0x08	0.062706284
71	0x1f	0.24298686
72	0xf2	-0.109735996
73	0xdf	-0.25866342
74	0xf1	-0.11757428
75	0xf7	-0.07054457
76	0x0c	0.09405942
77	0x1b	0.21163371
78	0xe4	-0.21947199
79	0x15	0.164604
80	0x09	0.07054457
81	0xe1	-0.24298686
82	0x2f	0.3683994
83	0x0d	0.10189771
84	0xe9	-0.18028057
85	0x24	0.28217828
86	0x14	0.15676571
87	0xef	-0.13325085
88	0x26	0.29785484
89	0x22	0.2665017
90	0xcf	-0.384076
91	0x2d	0.35272285
92	0x0b	0.08622114
93	0xee	-0.14108914
94	0x26	0.29785484
95	0x01	0.0078382855
96	0xdc	-0.28217828
97	0x18	0.18811885
98	0xeb	-0.164604
99	0xd4	-0.34488457
100	0x01	0.0078382855
101	0xf4	-0.09405942
102	0xc4	-0.47029713
103	0x19	0.19595714
104	0xeb	-0.164604
105	0xe8	-0.18811885
106	0x22	0.2665017
107	0xfe	-0.015676571
108	0xd8	-0.31353143
109	0x1f	0.24298686
110	0xe8	-0.18811885
111	0xcd	-0.39975256
112	0x1e	0.23514856
113	0xdb	-0.29001656
114	0xf4	-0.09405942
115	0x13	0.14892742
116	0x19	0.19595714
117	0xf7	-0.07054457
118	0xf8	-0.062706284
119	0xfe	-0.015676571
120	0xd8	-0.31353143
121	0x2d	0.35272285
122	0x11	0.13325085
123	0xdf	-0.25866342
124	0x32	0.39191428
125	0xdc	-0.28217828
126	0xe0	-0.25082514
127	0x16	0.17244229
128	0x0f	0.11757428
129	0x0f	0.11757428
130	0x2e	0.36056113
131	0xe7	-0.19595714
132	0x05	0.03919143
133	0x2a	0.329208
134	0x13	0.14892742
135	0x02	0.015676571
136	0x3d	0.4781354
137	0x02	0.015676571
138	0xff	-0.0078382855
139	0x16	0.17244229
140	0x0e	0.109735996
141	0xff	-0.0078382855
142	0x08	0.062706284
143	0x0b	0.08622114
144	0xda	-0.29785484
145	0x13	0.14892742
146	0xff	-0.0078382855
147	0xe8	-0.18811885
148	0x01	0.0078382855
149	0x0b	0.08622114
150	0x0d	0.10189771
151	0x01	0.0078382855
152	0x00	0.0
153	0xe0	-0.25082514
154	0x11	0.13325085
155	0xfb	-0.03919143
156	0xe5	-0.21163371
157	0xe0	-0.25082514
158	0x14	0.15676571
159	0x12	0.14108914
160	0xe7	-0.19595714
161	0xfa	-0.04702971
162	0x05	0.03919143
163	0xd3	-0.35272285
164	0xf1	-0.11757428
165	0xfe	-0.015676571
166	0x05	0.03919143
167	0x0a	0.07838286
168	0x05	0.03919143
169	0xc0	-0.5016503
170	0x0d	0.10189771
171	0x0f	0.11757428
172	0xa4	-0.72112226
173	0xdf	-0.25866342
174	0x12	0.14108914
175	0xca	-0.42326742
176	0xd9	-0.30569315
177	0xf1	-0.11757428
178	0x04	0.031353142
179	0x04	0.031353142
180	0xf4	-0.09405942
181	0xc4	-0.47029713
182	0xff	-0.0078382855
183	0x32	0.39191428
184	0xb6	-0.5800331
185	0x04	0.031353142
186	0x3a	0.45462057
187	0xdf	-0.25866342
188	0x00	0.0
189	0xf5	-0.08622114
190	0x22	0.2665017
191	0xf7	-0.07054457
192	0xff	-0.0078382855
193	0xc4	-0.47029713
194	0x04	0.031353142
195	0xf6	-0.07838286
196	0x0b	0.08622114
197	0x06	0.04702971
198	0xea	-0.17244229
199	0x29	0.3213697
200	0xf9	-0.054867998
201	0xe6	-0.20379542
202	0x2b	0.33704627
203	0xf5	-0.08622114
204	0xd5	-0.33704627
205	0x16	0.17244229
206	0x1a	0.20379542
207	0xf3	-0.10189771
208	0x37	0.4311057
209	0x1f	0.24298686
210	0x03	0.023514856
211	0x2f	0.3683994
212	0x21	0.25866342
213	0xed	-0.14892742
214	0x35	0.41542915
215	0x0c	0.09405942
216	0xcb	-0.41542915
217	0x01	0.0078382855
218	0xe4	-0.21947199
219	0xc9	-0.4311057
220	0x30	0.3762377
221	0x0e	0.109735996
222	0xf9	-0.054867998
223	0x21	0.25866342
224	0xea	-0.17244229
225	0xf7	-0.07054457
226	0x3d	0.4781354
227	0xf7	-0.07054457
228	0xf2	-0.109735996
229	0x27	0.30569315
230	0x0d	0.10189771
231	0xf5	-0.08622114
232	0x41	0.5094886
233	0xf8	-0.062706284
234	0xf8	-0.062706284
235	0x1a	0.20379542
236	0x08	0.062706284
237	0xdb	-0.29001656
238	0x39	0.44678226
239	0xe6	-0.20379542
240	0xe6	-0.20379542
241	0x12	0.14108914
242	0x11	0.13325085
243	0xe1	-0.24298686
244	0x16	0.17244229
245	0x01	0.0078382855
246	0xcb	-0.41542915
247	0x2d	0.35272285
248	0xf3	-0.10189771
249	0xc2	-0.48597372
250	0x0a	0.07838286
251	0x15	0.164604
252	0x0f	0.11757428
253	0x0c	0.09405942
254	0xe0	-0.25082514
255	0x02	0.015676571
