model/landmark_classifier/landmark-matome-case10.tflite (tflite, 9504 bytes, 8 tensors)

sequential_1/dense_6/MatMul f4 [10, 13]
0	0xbf567c57	-0.8378348
1	0xbdc4016a	-0.09570582
2	0x3ef4e76c	0.4783281
3	0xbecb5fd2	-0.39721543
4	0x3f3afee9	0.7304521
5	0x3d92a654	0.07160631
6	0x3f0fdae3	0.5619337
7	0xba86eb9d	-0.0010293607
8	0x3ef5b2d3	0.47987995
9	0xbe29d04c	-0.16583365
10	0xbf2c5b79	-0.67327076
11	0xbf7706d0	-0.9649477
12	0xbf96776d	-1.1755196
13	0xbf4d08e5	-0.80091697
14	0xbf7259e8	-0.94668436
15	0xbfa8c295	-1.3184382
16	0x3f1308c5	0.57435256
17	0x3eff44e0	0.49857235
18	0xbf089fa3	-0.53368586
19	0x3ebb3cf2	0.36569935
20	0x3f20e9ba	0.6285664
21	0xbf8390ff	-1.0278624
22	0x3f47686f	0.7789373
23	0x3f31b133	0.6941101
24	0xbe9ee393	-0.31033
25	0xbf650c21	-0.8947163
26	0x3e6d4f13	0.23174696
27	0x3d1367ae	0.03598755
28	0x3ef7954b	0.4835609
29	0x3eda5087	0.42639562
30	0x3ef6904d	0.48156968
31	0xbf39f6be	-0.72642124
32	0xbeefc038	-0.4682634
33	0xbf45eecc	-0.773175
34	0x3f038b0d	0.5138405
35	0xbdac1afd	-0.08403585
36	0xbe0b2d5d	-0.13591523
37	0x3edaacb8	0.427099
38	0xbec5ef37	-0.3865907
39	0x3efaf475	0.4901463
40	0xbd4a0e9a	-0.04933033
41	0xbe8fd673	-0.280933
42	0x3f2eb8ef	0.68250936
43	0x3ecb33c7	0.3968794
44	0x3d20721b	0.03917132
45	0xbe1659a9	-0.1468264
46	0xbf7ed1cc	-0.99538875
47	0xbecc1861	-0.3986235
48	0x3f2af3ad	0.6677807
49	0xbef66ab8	-0.48128295
50	0xbf131aef	-0.5746297
51	0x3ee0ff44	0.43944752
52	0x3d385973	0.04500718
53	0x3f2a3793	0.6649105
54	0x3f3bdf41	0.73387533
55	0xbf39dc08	-0.72601366
56	0xbf9ebf33	-1.2402099
57	0x3ebd74e7	0.37003252
58	0xbec62377	-0.38698933
59	0xbf1ff09e	-0.6247653
60	0x3dfc9519	0.123331256
61	0x3e98551a	0.29752427
62	0xbf05f0b8	-0.5232043
63	0x3ee72e7d	0.45152655
64	0x3ee7e3d0	0.45290995
65	0xbea6acbb	-0.32553658
66	0x3e5b4725	0.21413858
67	0xbef79ecb	-0.48363337
68	0xbe1f3140	-0.15546131
69	0xbec60a62	-0.38679796
70	0xbf138812	-0.576295
71	0x3f0a0e59	0.5392814
72	0xbe22f82c	-0.15914983
73	0xbd38e77a	-0.04514263
74	0x3f2557a2	0.6458684
75	0x3f532224	0.8247397
76	0xbef493e7	-0.4776909
77	0x3f1ae6a6	0.6050819
78	0xbe99ef3d	-0.30065337
79	0xbf5a82b6	-0.853557
80	0x3ed87d34	0.42283022
81	0xbf5aee0a	-0.8551947
82	0x3f3079b6	0.68935716
83	0x3e7d1be8	0.24717677
84	0x3e194b24	0.1497007
85	0xbcf180e0	-0.029480398
86	0xbf46606f	-0.77490896
87	0x3e2eec63	0.17082362
88	0xbeff0b85	-0.49813476
89	0x3f291e6d	0.6606205
90	0x3e9bf3cb	0.30459437
91	0xbecb065d	-0.39653292
92	0xbf4dcfd9	-0.80395275
93	0xbe0f2276	-0.1397799
94	0xbd1c0d6f	-0.03809875
95	0x3ed2a0e1	0.41138366
96	0x3c7df87c	0.015501138
97	0xbf1d7500	-0.6150665
98	0x3f506afb	0.8141324
99	0x3eba2352	0.36355072
100	0x3da0709b	0.07833978
101	0x3f010a61	0.5040646
102	0xbefa4cfd	-0.48886862
103	0x3ecfc7aa	0.4058202
104	0x3f0389c3	0.5138208
105	0xbe62c2a5	-0.22144563
106	0x3ea0f145	0.31434074
107	0x3e492758	0.19643915
108	0xbe3baebc	-0.18328375
109	0x3f7e0f04	0.9924166
110	0xbf2e28d8	-0.6803107
111	0x3e9c003d	0.30468932
112	0x3e21fd14	0.15819198
113	0xbf3dcb4e	-0.74138343
114	0x3f50121b	0.81277627
115	0xbe973cbb	-0.2953852
116	0x3df7a803	0.120925926
117	0x3d80c07f	0.06286716
118	0x3ea3f372	0.32021672
119	0x3ee5da93	0.4489332
120	0xbe2a03f1	-0.16603066
121	0x3e7b783b	0.24557583
122	0xbeb56cac	-0.35434473
123	0xbf0d200f	-0.5512704
124	0x3f1ae7c6	0.6050991
125	0xbe089668	-0.13338625
126	0xbd9e5164	-0.07730368
127	0xbd89bec5	-0.067258395
128	0x3eea332c	0.45742166
129	0xbf03e14c	-0.5151565

sequential_1/dense_5/MatMul f4 [13, 20]
0	0xbf06a511	-0.5259562
1	0xbd496cd7	-0.049176063
2	0x3f065d9d	0.5248659
3	0x3f035a58	0.5130973
4	0x3f099f16	0.5375837
5	0xbdaf8b93	-0.085715435
6	0x3ead7ded	0.33885136
7	0x3eb1c41a	0.34719926
8	0xbd0ba046	-0.034088396
9	0x3e8a9c6a	0.2707246
10	0xbe6d781c	-0.2319035
11	0xbe801085	-0.25012603
12	0x3f05e735	0.5230592
13	0xbf0f2768	-0.55919504
14	0xbe515dd2	-0.20445946
15	0x3e2f6075	0.17126639
16	0xbe32b380	-0.17451286
17	0x3e9f5193	0.31116924
18	0x3e9f9cca	0.31174308
19	0x3e4dd4dd	0.20100732
20	0xbe9d5e9e	-0.3073625
21	0x3e78da4b	0.24302022
22	0x3f654722	0.89561665
23	0x3ef58439	0.4795244
24	0xbdde03c5	-0.10840563
25	0x3e201017	0.15631138
26	0x3efb95a5	0.49137607
27	0xbe383e4e	-0.17992517
28	0x3d7e7816	0.06212624
29	0xbf1ef40f	-0.62091154
30	0xbeb47c4f	-0.3525109
31	0xbed1783b	-0.4091204
32	0x3e798cca	0.24370113
33	0x3d9a9c05	0.075492896
34	0x3ef8fb6f	0.4862933
35	0x3f181456	0.5940603
36	0x3f27060c	0.652436
37	0x3eca6cb5	0.39536062
38	0x3ded0f5a	0.11575194
39	0x3ee18da5	0.4405338
40	0xbda209ec	-0.07912049
41	0x3ddbde30	0.10735738
42	0x3d2e99d5	0.042627174
43	0xbdd800fd	-0.105470635
44	0x3f17523e	0.59109867
45	0x3ead44bd	0.33841506
46	0x3f599381	0.849907
47	0xbe0e855a	-0.13918057
48	0x3f5d9d00	0.8656769
49	0xbe328e32	-0.17437056
50	0x3ef7e69b	0.48418126
51	0xbee7c75b	-0.45269284
52	0xbc6d1d7f	-0.014472364
53	0xbbf69cee	-0.0075260317
54	0xbe555e54	-0.20836765
55	0xbd0e4b50	-0.034739792
56	0x3e9c2fe1	0.3050528
57	0x3dc500f2	0.09619321
58	0x3de2bfc1	0.110717304
59	0x3f2efab4	0.6835129
60	0xbf31c8d2	-0.6944705
61	0xbf124401	-0.57135016
62	0x3ed66551	0.41874173
63	0xbe494b14	-0.19657546
64	0x3f15666f	0.58359426
65	0xbf6d8095	-0.92774326
66	0xbe03c78a	-0.12869087
67	0xbc13cb35	-0.009020616
68	0xbd34625d	-0.04403912
69	0x3e826ae9	0.2547219
70	0xbe01f1ff	-0.1268997
71	0x3f0460c9	0.5171018
72	0x3e87503e	0.26428407
73	0xbe7bb515	-0.24580796
74	0xbdb115bb	-0.08646723
75	0x39c1de5c	0.000369775
76	0xbe807360	-0.25088024
77	0xbe1dc3a8	-0.15406668
78	0x3e8bedc4	0.27329838
79	0xbe84c84e	-0.2593407
80	0x3ebd67f9	0.36993387
81	0xbe653d83	-0.22386746
82	0xbf3b9fca	-0.73290694
83	0x3e24c223	0.16089682
84	0x3ec77ac0	0.38960838
85	0x3ef24a73	0.47322425
86	0xbf3e3459	-0.74298626
87	0x3f5a1365	0.85185844
88	0x3f1121df	0.5669231
89	0x3f40b376	0.75273836
90	0xbedf4603	-0.43608102
91	0x3f1df485	0.6170123
92	0xbdfa2a0a	-0.122150496
93	0x3ec7bb4b	0.3901008
94	0x3f06516d	0.52467996
95	0x3e264f25	0.16241129
96	0xbe0ac9ed	-0.13553591
97	0xbf4b9654	-0.7952626
98	0x3f01b193	0.5066158
99	0x3ee19e4d	0.44066086
100	0x3ca62df1	0.020285578
101	0x3f0ffbb4	0.56243443
102	0xbec6af80	-0.3880577
103	0xbe01dcad	-0.12681837
104	0x3e698f8f	0.2280867
105	0xbe7676b6	-0.24068722
106	0x3f2b4bcd	0.6691254
107	0xbec217ac	-0.37908685
108	0xbb342e74	-0.0027493509
109	0xbe9fa0c6	-0.31177348
110	0x3eaaabbc	0.33334148
111	0x3cb59a70	0.022168368
112	0x3eb21f34	0.3478943
113	0xbe2bd54f	-0.1678059
114	0xbe92d711	-0.28679708
115	0x3d770547	0.060307767
116	0xbb9f3653	-0.004858771
117	0x3f08acbe	0.53388584
118	0xbeeffb94	-0.46871626
119	0x3d07b094	0.033127382
120	0xbdc26d88	-0.09493548
121	0x3ef2510d	0.47327462
122	0x3e02a2b8	0.12757385
123	0xbf1e9957	-0.6195273
124	0xbf5c9778	-0.8616862
125	0x3f965267	1.1743897
126	0x3d1a60cc	0.03768997
127	0xbcfa03a6	-0.030519318
128	0x3f09341f	0.53595155
129	0x3f1098eb	0.56483334
130	0x3e31a936	0.17349705
131	0x3ec460c7	0.38355085
132	0xbe666f0d	-0.225033
133	0x3d8f7db2	0.07006396
134	0x3ed13da2	0.40867335
135	0x3f0cb70e	0.5496682
136	0xbf20eece	-0.6286439
137	0xbf235b15	-0.63810855
138	0xbd429661	-0.047506694
139	0xbf3757d6	-0.716184
140	0x3f4682b6	0.775432
141	0x3f32194d	0.69569856
142	0xbecf2246	-0.40455836
143	0xbe8db16e	-0.2767443
144	0xbde5d814	-0.11222854
145	0xbe05abe4	-0.13053852
146	0xbf313a25	-0.69229347
147	0x3e2df30b	0.16987245
148	0xbf2393f3	-0.6389763
149	0x3e0096ce	0.12557527
150	0x3efa58e8	0.48895955
151	0x3e60ad90	0.21941209
152	0xbcb0be14	-0.021575011
153	0x3ddfe906	0.109331176
154	0xbf007035	-0.50171214
155	0x3e875c5b	0.2643765
156	0xbc821545	-0.015879283
157	0x3f1786a3	0.59189814
158	0x3d5238ce	0.051323704
159	0x3f2a661c	0.66562057
160	0x3e56e5e0	0.20986128
161	0xbe72d5a7	-0.23714314
162	0xbe312697	-0.17299877
163	0x3f5d822c	0.8652675
164	0x3f529a95	0.82267123
165	0xbd8458ff	-0.06462287
166	0x3f4b76c4	0.79478097
167	0xbe6abb32	-0.22922972
168	0xbe96ac15	-0.29428163
169	0xbe3dca3d	-0.18534179
170	0x3f40e927	0.7535576
171	0x3e4db81e	0.20089766
172	0x3e692a9c	0.2277016
173	0x3f05dc00	0.5228882
174	0xbeaaa393	-0.33327922
175	0x3ca3a913	0.019978082
176	0x3f10ed91	0.566125
177	0xbe843c08	-0.2582705
178	0x3f387518	0.7205367
179	0xbeb78b58	-0.35848498
180	0xbe92f267	-0.28700563
181	0xbeee0a38	-0.4649217
182	0x3f80d2e4	1.0064359
183	0xbe6483e9	-0.22315945
184	0xbe872401	-0.26394656
185	0xbebc34ea	-0.3675912
186	0xbe01762e	-0.12642738
187	0x3e0c2af6	0.13688263
188	0x3e5f6dec	0.21819276
189	0x3f0cf86b	0.55066556
190	0xbef442b5	-0.47707143
191	0x3f292d0b	0.66084355
192	0xbec324bc	-0.38113964
193	0x3f15b9ac	0.5848644
194	0x3eca718f	0.39539763
195	0x3f318253	0.69339484
196	0xbf069d12	-0.5258342
197	0xbe2d49f2	-0.16922739
198	0x3ee527fd	0.4475707
199	0xbd82cebf	-0.0638709
200	0xbe6a3f89	-0.22875799
201	0x3f0c2c8d	0.5475548
202	0x3f0a1b05	0.5394748
203	0x3d58a767	0.052894022
204	0xbe353e87	-0.17699634
205	0xbf0bb84a	-0.5457808
206	0xbea2b33c	-0.3177737
207	0xbee4a922	-0.44660288
208	0xbf3f3d6b	-0.7470309
209	0xbdc9bf47	-0.098509364
210	0x3f1c97c4	0.61169076
211	0x3f0001fe	0.5000304
212	0x3e8682c5	0.26271644
213	0xbec728ac	-0.38898218
214	0xbeac5737	-0.3366029
215	0x3ea75a6b	0.3268617
216	0xbf2237fc	-0.63366675
217	0x3e479aeb	0.1949269
218	0xbe8bfb9b	-0.27340397
219	0xbeaa54d6	-0.3326785
220	0xbf0dfddc	-0.55465484
221	0x3e9ef99c	0.31049812
222	0xbe9369da	-0.28791696
223	0x3e1383d2	0.14405754
224	0x3e233ebc	0.159419
225	0x3ec9605d	0.39331332
226	0x3de6e05a	0.112732604
227	0x3eaef23f	0.34169194
228	0x3f307f61	0.68944365
229	0xbe96a921	-0.2942591
230	0xbed9d9d6	-0.42549008
231	0xbc678ba9	-0.014132419
232	0x3f01bd75	0.50679713
233	0x3f0712e9	0.5276323
234	0x3e8b2cbb	0.27182564
235	0x3ef9bb33	0.48775634
236	0x3f361128	0.7111993
237	0x3e24e07e	0.16101262
238	0x3d3986a7	0.04529443
239	0x3f3ec267	0.74515384
240	0xbf3afc41	-0.7304116
241	0x3e651556	0.2237142
242	0xbe8721d0	-0.26392984
243	0x3f11c6cf	0.5694398
244	0xbf1c70ac	-0.61109424
245	0xbecfd115	-0.40589204
246	0x3f1f5f6d	0.62254983
247	0xbb299ae4	-0.0025879676
248	0xbf370f4c	-0.71507716
249	0x3e9c2650	0.3049798
250	0xbd5d87c0	-0.05408454
251	0x3d607067	0.054794695
252	0x3f17c128	0.5927911
253	0xbe0f084a	-0.13968006
254	0x3f01c292	0.50687516
255	0x3f1c2ccc	0.61005855

sequential_1/dense_4/MatMul f4 [20, 35]
0	0xbe6810e0	-0.22662687
1	0xbcfd7219	-0.030938195
2	0x3e9dcc7f	0.3082008
3	0x3e80ccdf	0.25156304
4	0x3d9c88c7	0.07643276
5	0x3e0e95f0	0.13924384
6	0x3e0e8e60	0.13921499
7	0x3f006cf0	0.50166225
8	0x3e8eaf35	0.27868047
9	0xbed7e7b1	-0.42168954
10	0xbd9ffa63	-0.07811429
11	0xbe7ff958	-0.24997461
12	0x3e899efc	0.26879108
13	0x3ba7b068	0.005117465
14	0xbedba21d	-0.4289712
15	0xbe240ec3	-0.16021256
16	0xbef68b4e	-0.48153156
17	0xbf0720d4	-0.52784467
18	0x3ec74714	0.38921416
19	0x3ee70702	0.45122534
20	0x3ef25ea1	0.4733782
21	0x3ed1fe89	0.41014507
22	0x3e940122	0.28907114
23	0xbd31f5dd	-0.043447364
24	0x3f1bc6a6	0.6084999
25	0x3e8a1bc2	0.26974303
26	0xbd10ae61	-0.03532255
27	0x3efc6518	0.49295878
28	0x3f27b78a	0.65514433
29	0xbe1d618b	-0.15369241
30	0x3e6ee3fb	0.23329155
31	0xbd9bbe06	-0.076046035
32	0xbf2ddb35	-0.6791261
33	0xbdd3510e	-0.10318194
34	0x3f114055	0.5673879
35	0xbde038e4	-0.10948351
36	0xbec40af1	-0.38289598
37	0x3e04a50e	0.12953588
38	0xbd973e76	-0.0738496
39	0x3e57df70	0.21081328
40	0xbdcb854c	-0.09937534
41	0xbe6b5c84	-0.2298451
42	0xbdf424d6	-0.119210884
43	0x3e90a347	0.2824957
44	0x3c236688	0.009973176
45	0x3e80a048	0.25122285
46	0x3d985148	0.07437378
47	0x3cacb9ba	0.021084655
48	0x3e7052aa	0.23469034
49	0x3d5f7cb7	0.054562297
50	0x3f160153	0.5859577
51	0x3e6269f5	0.22110732
52	0x3ea7b38b	0.32754168
53	0x3e60226c	0.21888131
54	0x3dfd9796	0.12382428
55	0x3eba0398	0.36330867
56	0x3ee3a885	0.44464508
57	0xbbb0897b	-0.0053874827
58	0xbe5d37d3	-0.21603326
59	0xbdb394d2	-0.087686196
60	0x3e20560b	0.15657823
61	0xbe2c047a	-0.16798583
62	0x3e27b5dc	0.16377968
63	0xbeb8fca3	-0.36130247
64	0xbebacdff	-0.36485288
65	0x3ed0bc63	0.40768728
66	0xbd91c3ee	-0.07117449
67	0x3c820d4d	0.015875483
68	0xbd4de89f	-0.050270673
69	0x3de1fb2e	0.11034237
70	0x3eb2cb28	0.3492062
71	0x3f1e3a5b	0.61807793
72	0xbea20bef	-0.3164973
73	0x3ea372e0	0.3192358
74	0xbf2cb518	-0.6746383
75	0xbecdc610	-0.40190172
76	0xbe10f5b2	-0.14156225
77	0xbd85ac07	-0.06526952
78	0xbea2112f	-0.31653735
79	0x3f32e4a7	0.69880146
80	0x3f0cae0b	0.5495307
81	0x3f12a92c	0.57289386
82	0xbe6ac229	-0.22925629
83	0x3e06cbf7	0.13163744
84	0xbda11edf	-0.07867216
85	0x3e3c637d	0.18397327
86	0xbd52306c	-0.05131571
87	0x3e3da711	0.18520762
88	0xbe18413f	-0.1486864
89	0xbea21daa	-0.31663257
90	0x3c33f7af	0.010984345
91	0xbd807160	-0.062716246
92	0x3e465e2c	0.19371861
93	0x3ee8970a	0.45427734
94	0xbdf9cad5	-0.1219689
95	0xbe9085ef	-0.28227183
96	0x3ed6d8a9	0.41962174
97	0x3f300075	0.687507
98	0xbd6e29f6	-0.058145486
99	0xbdbba6e1	-0.09162689
100	0xbe9513ce	-0.29116672
101	0xbeb45642	-0.3522206
102	0x3e0d410d	0.13794346
103	0x3e84032a	0.25783664
104	0xbeada332	-0.3391357
105	0xbf1c22c2	-0.60990536
106	0xbea6fa08	-0.32612634
107	0xbf36b5c9	-0.7137113
108	0x3e8f1830	0.2794814
109	0x3efe0469	0.4961274
110	0xbdf932e7	-0.12167912
111	0x3b05643b	0.0020353931
112	0xbe25e1de	-0.16199443
113	0x3db9ebf1	0.090782054
114	0xbee21a55	-0.44160715
115	0x3dfe0fcb	0.12405356
116	0x3dc39aef	0.095510356
117	0xbe174927	-0.14773999
118	0x3e5b3fd3	0.21411066
119	0x3dda9e64	0.10674742
120	0xbc603c63	-0.013686272
121	0xbdf2d18f	-0.118563764
122	0x3e8dc334	0.2768799
123	0x3eb8944c	0.36050642
124	0xbf1cbd29	-0.61226135
125	0x3ebf6979	0.37385157
126	0xbf05875b	-0.5215966
127	0x3edd81df	0.43263146
128	0x3f0ba33b	0.54545945
129	0x3cbd0c65	0.0230772
130	0xbc1775d2	-0.009244399
131	0x3e254d86	0.16142854
132	0x3eb204c8	0.34769273
133	0xbd4894b3	-0.048969936
134	0x3f202466	0.6255554
135	0xbe1fe9d3	-0.1561654
136	0x3ef70d93	0.48252544
137	0x3f0d2b42	0.5514413
138	0x3ed047c6	0.4067976
139	0xbcc607df	-0.024173675
140	0xbd1132c2	-0.035448797
141	0x3e17c2ab	0.14820354
142	0xbef0edfe	-0.47056574
143	0x3e022c41	0.12712194
144	0x3e37b7d4	0.17941219
145	0xbdd2eee6	-0.102994725
146	0x3e6d7a76	0.23191246
147	0xbf10f61d	-0.5662554
148	0x3db779a3	0.08958747
149	0xbf0f36b3	-0.5594284
150	0xbe54d3c1	-0.20783903
151	0xbe8b29bd	-0.2718028
152	0xbe8ad44b	-0.27115092
153	0xbf159380	-0.5842819
154	0x3eb773b2	0.35830456
155	0x3d92f47e	0.071755394
156	0x3e647549	0.22310366
157	0xbd42a535	-0.047520835
158	0xbe40b2ba	-0.18818179
159	0x3e21cee1	0.15801574
160	0xbd9b2443	-0.07575276
161	0xbf090087	-0.5351643
162	0x3d772ae2	0.06034363
163	0x3eaba922	0.33527476
164	0xbe1059f4	-0.14096814
165	0xbf0715e9	-0.5276781
166	0x3ecb7936	0.39740914
167	0xbeff1dc8	-0.4982741
168	0xbe410444	-0.18849283
169	0x3ee7504e	0.45178455
170	0xbf2ca2a1	-0.6743565
171	0x3e0de3fb	0.13856499
172	0x3ee112c3	0.43959627
173	0xbe023727	-0.12716351
174	0x3f2516b1	0.6448775
175	0x3d4f20bb	0.050568324
176	0xbee64f13	-0.44982204
177	0x3b88e411	0.0041775783
178	0x3e9e6485	0.30936065
179	0xbcf835cb	-0.030299088
180	0x3f2eb704	0.6824801
181	0x3ea56a91	0.32307866
182	0x3f1ae5a8	0.6050668
183	0x3ef40591	0.47660497
184	0x3f0891f7	0.53347725
185	0xbe72f33b	-0.23725598
186	0xbd5a319b	-0.053269964
187	0x3e98e29b	0.29860386
188	0x3ea4cf0b	0.3218921
189	0xbf003af9	-0.50089985
190	0xbe8768bd	-0.26447096
191	0x3e8a7514	0.2704245
192	0xbc8dadac	-0.017294727
193	0x3e026820	0.12735033
194	0x3eeab237	0.45839092
195	0xbe50524a	-0.20343891
196	0x3f09c0d5	0.53809863
197	0xbf3677c6	-0.7127651
198	0xbe319b35	-0.17344363
199	0x3e68627a	0.22693816
200	0x3e9508b9	0.29108217
201	0xbed8ca1e	-0.42341703
202	0x3ddb056e	0.10694395
203	0x3e21f3a0	0.15815592
204	0x3e316012	0.17321804
205	0x3e1ea2b5	0.15491755
206	0xbe6bc057	-0.2302259
207	0xbe9a0e7a	-0.3008917
208	0xbeb094bd	-0.34488478
209	0x3e7e379c	0.24825901
210	0xbf28b4bb	-0.6590077
211	0xbc3ecb33	-0.011645126
212	0xbf3aa16b	-0.72902554
213	0x3eb2eedd	0.34947863
214	0xbee8969d	-0.4542741
215	0x3e942b19	0.2893913
216	0xbdbd43cb	-0.09241446
217	0xbe115e92	-0.14196232
218	0x3ed6d338	0.41958022
219	0x3e836c3b	0.2566851
220	0x3f008fab	0.5021922
221	0x3ed5dbe5	0.4176933
222	0x3e349f23	0.17638831
223	0x3e96a195	0.29420152
224	0xbe08fc68	-0.13377535
225	0x3e703e3f	0.23461245
226	0xbf1034e5	-0.5633071
227	0x3ee9fd82	0.45701224
228	0x3f26fb87	0.6522755
229	0xbecf990d	-0.40546456
230	0xbe5b6096	-0.21423563
231	0xbea354c1	-0.319006
232	0xbedb48ff	-0.4282913
233	0xbcd0beab	-0.025481543
234	0xbd378f13	-0.04481418
235	0x3e8e6146	0.2780859
236	0x3e959f54	0.2922312
237	0x3e1cdd62	0.15318826
238	0xbef22878	-0.472965
239	0x3f21046b	0.62897366
240	0xbef1437f	-0.47121808
241	0x3e2c1d57	0.16808067
242	0x3e7e1f65	0.24816664
243	0x3eb1555c	0.34635437
244	0xbefad9d7	-0.48994324
245	0xbc5c72e1	-0.013455124
246	0xbd96658e	-0.07343589
247	0xbee3c592	-0.44486672
248	0xbda36ef5	-0.07980148
249	0x3f50b171	0.81520754
250	0x3edf2f51	0.43590787
251	0x3dfdd09f	0.12393307
252	0x3de20a0e	0.11037074
253	0x3e2592e0	0.1616931
254	0x3b4d2e10	0.0031307973
255	0x3daf6609	0.085643835

sequential_1/dense_6/BiasAdd/ReadVariableOp f4 [10]
0	0x3e44b53b	0.19209759
1	0x3dee8713	0.11646857
2	0xbe1c9531	-0.15291287
3	0xbdf385e2	-0.118907705
4	0xbc133119	-0.008983874
5	0xbe85f21f	-0.26161286
6	0x3e07c001	0.13256837
7	0x3d96e6c5	0.073682345
8	0x3e40767b	0.18795197
9	0xbe49657a	-0.19667616

sequential_1/dense_5/BiasAdd/ReadVariableOp f4 [13]
0	0xbc96018f	-0.01831129
1	0xbe9af1a8	-0.30262494
2	0x3d7b228d	0.061312247
3	0xbd879956	-0.066210434
4	0x3e46450f	0.19362281
5	0x3eb4331b	0.3519524
6	0x3d2a52c9	0.041582856
7	0x3e8adac3	0.27120027
8	0x3d8131bc	0.06308314
9	0xbe013108	-0.1261636
10	0x3e04bfd9	0.12963809
11	0x3d636a85	0.055521507
12	0x3ce0bb77	0.02743314

sequential_1/dense_4/BiasAdd/ReadVariableOp f4 [20]
0	0x3e570f36	0.21001896
1	0x3e8c2f27	0.27379724
2	0xbe8362ad	-0.2566122
3	0xbd4fcec4	-0.050734296
4	0x3dddbbe7	0.10826855
5	0x3d929801	0.07157899
6	0xbc951eda	-0.018203188
7	0x3e4428f6	0.1915625
8	0xbd24b733	-0.040213775
9	0x3e34d10a	0.17657867
10	0x3e5678f2	0.20944574
11	0x3e55e67d	0.20888706
12	0x3e4dc106	0.20093164
13	0xbc87437a	-0.016511668
14	0xbe191862	-0.14950708
15	0xbb8b3ddf	-0.004249319
16	0x3dffab3e	0.12483834
17	0x3e309b38	0.17246711
18	0xbe41be47	-0.18920241
19	0x3e6bcd39	0.23027505

sequential_1/dense_3/BiasAdd/ReadVariableOp f4 [35]
0	0xbd908b25	-0.0705779
1	0x3ca54357	0.020173712
2	0x3d21ab29	0.03946987
3	0x3c0c316f	0.008556708
4	0x3e273a4b	0.16330831
5	0x3e6868eb	0.22696273
6	0x3e15d783	0.14632992
7	0x3e38ee9b	0.18059771
8	0x3e2ef4a5	0.17085512
9	0xbe11e720	-0.14248323
10	0x3db85c2b	0.09001955
11	0x3c1c522a	0.009541074
12	0x3ea1ac72	0.31576878
13	0x3d062b9f	0.032756444
14	0x3e082bb7	0.13297926
15	0x3dc6b154	0.097017914
16	0x3db20dae	0.086940154
17	0x3dc7e3d2	0.0976025
18	0x3d46b56e	0.04851287
19	0x3ea924af	0.330358
20	0x3defad8f	0.117030255
21	0x3e8b2aba	0.27181035
22	0xbd890298	-0.06689948
23	0xbd82b2d5	-0.06381766
24	0x3e0b8d52	0.13628128
25	0x3e841761	0.25799087
26	0xbd3f6ec9	-0.046736512
27	0xbc858a99	-0.01630144
28	0x3da8dec2	0.08245613
29	0xbd3f21e3	-0.046663176
30	0x3de66f52	0.112517014
31	0x3d9da51f	0.0769751
32	0xbe108732	-0.14114073
33	0xbd8c8e92	-0.06863131
34	0x3e0c2aa8	0.13688147

sequential_1/dense_3/MatMul i1 [35, 63] scale=0.0059660166 zero_point=0
0	0xfe	-0.011932033
1	0xed	-0.11335432
2	0x03	0.01789805
3	0x0b	0.06562618
4	0x38	0.33409694
5	0xb0	-0.47728133
6	0xfb	-0.029830083
7	0x12	0.107388295
8	0xf4	-0.0715922
9	0x1b	0.16108245
10	0x02	0.011932033
11	0xd7	-0.24460667
12	0xfc	-0.023864066
13	0x4c	0.45341727
14	0xec	-0.11932033
15	0xf3	-0.07755821
16	0x0c	0.0715922
17	0x29	0.24460667
18	0xed	-0.11335432
19	0xd2	-0.27443677
20	0x20	0.19091253
21	0xfc	-0.023864066
22	0xfd	-0.01789805
23	0x04	0.023864066
24	0xd8	-0.23864067
25	0x0a	0.059660167
26	0xe6	-0.15511642
27	0x02	0.011932033
28	0xf1	-0.08949025
29	0x43	0.3997231
30	0x32	0.29830083
31	0xbb	-0.41165513
32	0x44	0.40568912
33	0x12	0.107388295
34	0xd1	-0.28040278
35	0x20	0.19091253
36	0xb5	-0.44745123
37	0xb3	-0.45938328
38	0xe0	-0.19091253
39	0x28	0.23864067
40	0xcf	-0.29233482
41	0x17	0.13721839
42	0xee	-0.107388295
43	0xf8	-0.047728132
44	0xec	-0.11932033
45	0xd8	-0.23864067
46	0xfa	-0.0357961
47	0xd8	-0.23864067
48	0xef	-0.10142228
49	0xf9	-0.041762117
50	0xbc	-0.40568912
51	0x09	0.053694148
52	0x31	0.29233482
53	0xf6	-0.059660167
54	0x1c	0.16704847
55	0x2d	0.26847073
56	0x13	0.11335432
57	0xda	-0.22670864
58	0x35	0.3161989
59	0x08	0.047728132
60	0xf3	-0.07755821
61	0x43	0.3997231
62	0xde	-0.20284456
63	0x14	0.11932033
64	0x12	0.107388295
65	0x19	0.14915042
66	0xea	-0.13125236
67	0x41	0.38779107
68	0xda	-0.22670864
69	0xe8	-0.1431844
70	0xf4	-0.0715922
71	0xa6	-0.53694147
72	0xfa	-0.0357961
73	0x16	0.13125236
74	0xc5	-0.351995
75	0xed	-0.11335432
76	0xf2	-0.083524235
77	0xc3	-0.363927
78	0x0e	0.083524235
79	0xcf	-0.29233482
80	0x17	0.13721839
81	0x18	0.1431844
82	0x09	0.053694148
83	0x16	0.13125236
84	0xda	-0.22670864
85	0xfb	-0.029830083
86	0x0a	0.059660167
87	0x1c	0.16704847
88	0x15	0.12528634
89	0xdc	-0.21477659
90	0x0e	0.083524235
91	0xa4	-0.54887354
92	0x42	0.3937571
93	0x01	0.0059660166
94	0xe0	-0.19091253
95	0x35	0.3161989
96	0x28	0.23864067
97	0xff	-0.0059660166
98	0x14	0.11932033
99	0x3d	0.363927
100	0xf1	-0.08949025
101	0x28	0.23864067
102	0xec	-0.11932033
103	0xd5	-0.25653872
104	0x10	0.095456265
105	0x0b	0.06562618
106	0xca	-0.3221649
107	0x43	0.3997231
108	0x17	0.13721839
109	0xe4	-0.16704847
110	0xfb	-0.029830083
111	0x53	0.49517938
112	0xe7	-0.14915042
113	0xf5	-0.06562618
114	0x4c	0.45341727
115	0xc4	-0.357961
116	0x24	0.21477659
117	0x31	0.29233482
118	0x20	0.19091253
119	0x07	0.041762117
120	0x30	0.2863688
121	0xeb	-0.12528634
122	0xf8	-0.047728132
123	0x4f	0.4713153
124	0x2c	0.26250473
125	0xea	-0.13125236
126	0x22	0.20284456
127	0x27	0.23267464
128	0x25	0.22074261
129	0xf9	-0.041762117
130	0x12	0.107388295
131	0x2d	0.26847073
132	0xbb	-0.41165513
133	0xf6	-0.059660167
134	0xf9	-0.041762117
135	0xc3	-0.363927
136	0x28	0.23864067
137	0x25	0.22074261
138	0x8f	-0.6741599
139	0x07	0.041762117
140	0xef	-0.10142228
141	0x13	0.11335432
142	0x1e	0.1789805
143	0x1a	0.15511642
144	0xcc	-0.31023285
145	0xe3	-0.17301448
146	0x35	0.3161989
147	0xf3	-0.07755821
148	0x10	0.095456265
149	0x26	0.22670864
150	0x00	0.0
151	0xf0	-0.095456265
152	0xfd	-0.01789805
153	0x01	0.0059660166
154	0x20	0.19091253
155	0x05	0.029830083
156	0xf6	-0.059660167
157	0x13	0.11335432
158	0xff	-0.0059660166
159	0x0c	0.0715922
160	0x09	0.053694148
161	0x08	0.047728132
162	0x33	0.30426684
163	0xf0	-0.095456265
164	0xf0	-0.095456265
165	0xf2	-0.083524235
166	0x1a	0.15511642
167	0x1f	0.1849465
168	0x23	0.20881058
169	0xf4	-0.0715922
170	0xed	-0.11335432
171	0x29	0.24460667
172	0xfc	-0.023864066
173	0xe9	-0.13721839
174	0x71	0.6741599
175	0xeb	-0.12528634
176	0xb4	-0.45341727
177	0x02	0.011932033
178	0x30	0.2863688
179	0x1e	0.1789805
180	0x40	0.38182506
181	0xe2	-0.1789805
182	0x04	0.023864066
183	0x2c	0.26250473
184	0xe0	-0.19091253
185	0xfb	-0.029830083
186	0x7f	0.7576841
187	0xc2	-0.369893
188	0xc5	-0.351995
189	0x0e	0.083524235
190	0x0f	0.08949025
191	0xf6	-0.059660167
192	0x0c	0.0715922
193	0xca	-0.3221649
194	0xf1	-0.08949025
195	0x12	0.107388295
196	0x00	0.0
197	0xc5	-0.351995
198	0x1e	0.1789805
199	0xdd	-0.20881058
200	0xd0	-0.2863688
201	0x27	0.23267464
202	0x1a	0.15511642
203	0xfd	-0.01789805
204	0x27	0.23267464
205	0xc8	-0.33409694
206	0xd0	-0.2863688
207	0x23	0.20881058
208	0xda	-0.22670864
209	0xdd	-0.20881058
210	0x1d	0.17301448
211	0xd3	-0.26847073
212	0xe1	-0.1849465
213	0xe3	-0.17301448
214	0x1f	0.1849465
215	0xfa	-0.0357961
216	0x06	0.0357961
217	0xe0	-0.19091253
218	0xb9	-0.42358717
219	0x07	0.041762117
220	0xd2	-0.27443677
221	0xd6	-0.25057268
222	0x11	0.10142228
223	0xd1	-0.28040278
224	0xf9	-0.041762117
225	0x24	0.21477659
226	0xcd	-0.30426684
227	0xd7	-0.24460667
228	0x1b	0.16108245
229	0xd5	-0.25653872
230	0xda	-0.22670864
231	0x2c	0.26250473
232	0xd3	-0.26847073
233	0xb9	-0.42358717
234	0x26	0.22670864
235	0xd1	-0.28040278
236	0xf4	-0.0715922
237	0x0e	0.083524235
238	0xc2	-0.369893
239	0xfc	-0.023864066
240	0x45	0.41165513
241	0xc8	-0.33409694
242	0xe7	-0.14915042
243	0x22	0.20284456
244	0xdf	-0.19687855
245	0xbc	-0.40568912
246	0x3d	0.363927
247	0xfb	-0.029830083
248	0xff	-0.0059660166
249	0x12	0.107388295
250	0x01	0.0059660166
251	0xeb	-0.12528634
252	0x10	0.095456265
253	0xef	-0.10142228
254	0xfd	-0.01789805
255	0xf0	-0.095456265
